DNN-200.pt (torch, 18911 bytes, 3 tensors)

weight f4 [32, 128]
00000000: d8e8 0840 e1f4 0a3f 4c41 3d3f 35db 1f3d
00000010: bdc4 e0bf 03ff 593f 1c70 e03f 9eca 86bf
00000020: e183 4c3f 2184 243e 79dd b63e 2845 85bf
00000030: ec7e 553f 735f afbf 57b0 fcbf a4fc f2bf
00000040: c248 e63f e2b6 0340 a692 8f3f 1668 8dbf
00000050: 3a4b d0bf 3b49 0e3f 718a 683f 322e fd3f
00000060: 1961 afbd d774 32bf 3a87 1e40 6654 ec3f
00000070: 9176 a340 606d 0741 ed7b 6840 074d 84be
00000080: 6822 1041 2206 abc0 c6fa 2fc0 a5ad 36c0
00000090: c277 0b41 c246 f140 980f 51bf 0607 01c1
000000a0: 118f a940 b7ef 15c1 b802 3741 56be 2140
000000b0: 2f81 cfbf 4483 8bc1 801a 8dc1 1a23 38c1
000000c0: 48e7 0ec1 6f0c f73f 5658 89c1 0ae4 6f41
000000d0: 2840 aa40 0cf3 8c3f 6ddd 51c1 419a 6b40
000000e0: 2dc7 6b3f 4e7f a441 44eb c8bf 7a12 b841
000000f0: 44e2 dabf 080e 2c40 afc4 ccbe 8878 c940
00000100: d837 4540 61d3 49bf c688 5f3f 6263 d43f
00000110: 21f7 d1c0 f508 84c1 73e6 9cc0 f172 42c0
00000120: 14a2 26c1 bd26 e9bf b807 a040 2bc5 bf3c
00000130: 96f6 e1bd 8636 933f df55 03c0 c93e 8a3f
00000140: 3c75 dabe 2605 0440 e24e 473b 52b1 32c0
00000150: a501 0440 401e bbbf a58a 1b3e 0d28 e9bf
00000160: e2f8 88bf 931f 4bbe c63d 8b3f 5853 393f
00000170: 3a2e 953e 2358 97bf a1a4 1540 267b dabf
00000180: 068d 1fc0 be7e c0be e3f6 3cc0 efb8 8840
00000190: 8908 1cbf 1282 62c0 da4a bebf 4116 9bc0
000001a0: 2fdd 9dbf 855a aabf 7ffa 4fbf cfdd 38bf
000001b0: c5a2 a940 7a42 83c0 9c04 0fbf 30e2 9ebe
000001c0: d2b9 3ac0 b635 a4c0 e72c 02c1 596f 8cc0
000001d0: 7e72 c8c0 e131 62c0 673c edbf 0a49 aabe
000001e0: 9744 59bf 1844 9e40 86d7 9d3f 0bb0 8c40
000001f0: 5a0e a640 ddf5 e2bf 8394 c540 5d7d 3bc1
00000200: 74b3 1ac0 4d3b d0be ad7b 8e3f f209 24c0
00000210: e275 0bc0 f024 c7c0 af7f 4340 a1be 0040
00000220: d35d 01c1 daf6 adc0 01a2 39c1 4739 23c1
00000230: 73e7 323f 9fcf 3340 9bd7 c6c0 ee75 9dc0
00000240: 047f 08c1 c41c 4dbf 21ca 43c0 b89e aabf
00000250: 2b26 0341 d9f1 7640 093d c7bd 4eac 0dc1
00000260: 2d70 1b3f cc82 cfbf 8a0d 4841 ecb7 a340
00000270: 95e9 07c1 6e83 a6c1 7810 9cc0 03f0 6440
00000280: 5c84 eebe 0415 0341 66bd 3c41 71b0 34c1
00000290: 664d edc0 4676 20c0 91a0 bcc0 97f7 75c0
000002a0: f164 26c1 7cda 3d41 eb50 443f 326b b241
000002b0: 7836 9a41 b01e 8340 2bc3 1ec2 a093 ef40
000002c0: e93d 9e41 aab4 5741 ab8d 623f 3d2c 88c0
000002d0: b94b bcc1 21a3 04c1 a923 8f41 4daa e641
000002e0: 4cc9 3541 59f2 c6c1 1e00 44c1 0508 8741
000002f0: 7747 fbc0 88fe 27c1 f582 0842 c388 a1c0
00000300: 3586 c83d 0643 f4be 3908 ec3e dde0 d83f
00000310: 78dc 50bd 48a5 6ec0 62b9 e73f 708f 0f40
00000320: 7e0a ca3f 78f1 453e 45b3 e9bf 9fcd 023f
00000330: e195 d53e 4f4c 963f d3fd 4a40 1521 38c0
00000340: 506a 4b3e 78bd 0fc0 50d9 143e 5783 2940
00000350: 1938 f03e df38 c03f c4b2 773f e1aa 403f
00000360: 11ae 73be 7d01 9abf 2e67 8cbf 0697 4b3e
00000370: 39cb 77bf f89f c93f 2007 bbbf 6a67 b03f
00000380: 6178 8ac0 ef7b 0f40 4f01 843f 39ba 4840
00000390: edd1 5740 a5d4 9d3f 1054 21c0 b2cb 13bf
000003a0: c2ff 65bf 5780 a0bd 63f1 0840 3ba1 aa40
000003b0: f0cd bfbf 7e21 e0c0 f722 433f 573a 6dc0
000003c0: 94b8 b5c0 d75f 6040 8d1d 9dc0 dc72 81c1
000003d0: 6158 dbc1 a023 01c1 afe3 9740 1aa9 5dc1
000003e0: 0c97 41c0 00aa 9c40 28ea a040 a334 5241
000003f0: eba3 cec0 ede4 d43f 68b9 c1c0 7fcd afbf
2.1392117 0.54279906 0.7392776 0.03902741 -1.756004 0.8515474 1.7534213 -1.0530584
0.7988873 0.16066028 0.35715845 -1.041173 0.8339679 -1.3701004 -1.9741315 -1.898335
1.7990954 2.0580373 1.1216629 -1.104739 -1.6272957 0.5558049 0.90836245 1.9779723
-0.08563442 -0.69709533 2.4770036 1.8463256 5.1082234 8.464203 3.6325638 -0.25840017
9.0084 -5.3444986 -2.749681 -2.8543484 8.716738 7.5398874 -0.8166442 -8.064215
5.298714 -9.371024 11.438164 2.5272422 -1.6211299 -17.439095 -17.63794 -11.50857
-8.931465 1.930067 -17.168133 14.993174 5.3203316 1.1011672 -13.116559 3.68129
0.92100793 20.56216 -1.5696797 23.009022 -1.7100301 2.6883564 -0.39993808 6.2959633
3.0815334 -0.78838164 0.87318075 1.6592829 -6.561417 -16.504374 -4.903131 -3.0382655
-10.41457 -1.8214947 5.000942 0.023409447 -0.11033361 1.1501014 -2.0521162 1.080041
-0.42667568 2.0628142 0.0030412008 -2.7920728 2.0626004 -1.4618607 0.15189607 -1.8215348
-1.0700953 -0.19836263 1.0878227 0.723928 0.2913683 -1.1823772 2.3381732 -1.7068832
-2.4929824 -0.37596697 -2.9525688 4.272575 -0.60950524 -3.5391889 -1.4866593 -4.8464665
-1.2333125 -1.3308874 -0.812416 -0.72213453 5.3011193 -4.101865 -0.5586641 -0.31031942
-2.9175916 -5.1315565 -8.1359625 -4.3885922 -6.263976 -3.5342944 -1.8534058 -0.3325885
-0.84870285 4.945812 1.2331398 4.3964896 5.189252 -1.7731282 6.174379 -11.718106
-2.417203 -0.40670243 1.1131493 -2.563107 -2.17907 -6.223259 3.0546682 2.011635
-8.085406 -5.4363832 -11.602052 -10.201484 0.69884413 2.8095472 -6.213819 -4.9206457
-8.53101 -0.8012202 -3.059212 -1.3329687 8.196818 3.8585112 -0.097284384 -8.854567
0.6071804 -1.6211791 12.503305 5.1162014 -8.494527 -20.814175 -4.8770103 3.5771492
-0.46585357 8.192631 11.79624 -11.2930765 -7.415698 -2.5072188 -5.8946004 -3.8432367
-10.399644 11.865841 0.7668597 22.302341 19.276596 4.097496 -39.690594 7.4867706
19.78023 13.481607 0.8849742 -4.2554 -23.536974 -8.289826 17.892412 28.833155
11.361645 -24.868334 -12.250029 16.878916 -7.8524737 -10.499641 34.127888 -5.0479445
0.09791223 -0.47707385 0.46100023 1.6943623 -0.050991505 -3.728838 1.8103449 2.2431297
1.5784452 0.19330394 -1.8257834 0.51095 0.4171591 1.1742038 3.1717422 -2.8770192
0.19864774 -2.2459393 0.14536023 2.6486413 0.469178 1.5017356 0.9675715 0.7526074
-0.2379687 -1.2031704 -1.0968988 0.1988183 -0.9679447 1.5751944 -1.4611549 1.378156
-4.3271947 2.2419393 1.0312899 3.1363661 3.3721879 1.2330519 -2.5207558 -0.5773269
-0.8984338 -0.07836979 2.139733 5.3321815 -1.4984722 -7.0040884 0.7622523 -3.7066858
-5.6787815 3.5058496 -4.9098573 -16.181084 -27.418154 -8.0711975 4.7465434 -13.853785
-3.0248442 4.895752 5.0285835 13.137851 -6.4575095 1.6632363 -6.0538826 -1.3734587

bias f4 [32]
00000000: 2e7c 0cc1 e81e bec0 b839 d6c1 2c16 bbc1
00000010: 2541 3ec1 21fd 48c0 1f93 b2c1 b5f8 0fbe
00000020: bbfc d43e 6435 76c1 1729 9ec1 bb25 95c1
00000030: 4e0a 3540 7e7d 46c1 01e8 61c1 966b dfc0
00000040: 3941 7fc1 cf47 e9c0 3bf9 78c1 acbb 23c1
00000050: ec6a 17c1 061c bcc1 44aa 2bc1 3b6a 89c0
00000060: 6097 e0c1 0321 dcc1 570b 89c1 3d6a c5c1
00000070: 60bb bac1 0431 34c0 4c2c e1c1 8570 82c1
-8.780317 -5.9412727 -26.778183 -23.385826 -11.890904 -3.1404498 -22.321836 -0.14059718
0.41599068 -15.388035 -19.770063 -18.643423 2.828754 -12.405638 -14.119142 -6.981883
-15.9534235 -7.2900157 -15.560847 -10.233318 -9.463604 -23.513683 -10.729069 -4.2942176
-28.073914 -27.516119 -17.130537 -24.676874 -23.341492 -2.8154917 -28.14663 -16.304941

weight f4 [1, 32]
00000000: c75e 363e 8e1c 0c3e d957 573f a63c e63e
00000010: 4044 243e b5a3 ffbd 4bb8 b53e ac9d 8cbe
00000020: 8b6d 5a3e aafb 883e 44b3 b83e 1ce3 4e3e
00000030: 3443 673e ec38 3d3e 922d 453e ff45 493e
00000040: db0f 0f3f afcf 1e3e aca7 a5be 5446 4b3e
00000050: 043d 3a3e 4c8f 033f 6488 3f3e 719a 213e
00000060: 7a08 d23e 4961 5b3e 97cb 463e cd3a 083f
00000070: e34b d33e 0cbd f63d 220f 663f 8715 8b3e
0.17809592 0.13682768 0.8411842 0.44968146 0.1604166 -0.124823965 0.35492167 -0.27464044
0.2133085 0.26754504 0.3607427 0.20203823 0.2258423 0.18478745 0.19255665 0.19655608
0.5588357 0.15508913 -0.32354486 0.19851047 0.18187338 0.5139053 0.18704373 0.15781571
0.41022092 0.2142383 0.19413601 0.5321472 0.41268834 0.120477766 0.8986684 0.27164862
