DNN-2500.pt (torch, 18911 bytes, 3 tensors)

weight f4 [32, 128]
0	0xc155261b	-13.321803
1	0x407671bd	3.850692
2	0x40fb8b7b	7.8607764
3	0xc182849d	-16.314753
4	0xc127316d	-10.449567
5	0xc0eaa13c	-7.332182
6	0x41074916	8.455343
7	0x4013bd89	2.3084433
8	0xc238b6bc	-46.17845
9	0x40518f6a	3.2743783
10	0xc120f449	-10.05964
11	0xc0572e83	-3.3622139
12	0x40cb77b1	6.358361
13	0x41cef635	25.870218
14	0x4159f642	13.622622
15	0xc16d1b71	-14.8192
16	0xc1c4479d	-24.534967
17	0x41b8b326	23.087475
18	0xc22bcf26	-42.952293
19	0xc07bab36	-3.932325
20	0x413be110	11.742447
21	0xc25b5bcf	-54.839657
22	0xc22319f8	-40.77536
23	0xc22b78e5	-42.86806
24	0x4188d776	17.105206
25	0xc21dc747	-39.444607
26	0x414f36f7	12.950919
27	0xc1eda5ea	-29.706013
28	0x4221722b	40.361492
29	0x40c0b074	6.0215397
30	0xc2241368	-41.01895
31	0x411a91dd	9.660611
32	0x41a8f10d	21.1177
33	0xc249d46a	-50.457436
34	0xc143ce3b	-12.237849
35	0xc28d34a5	-70.60282
36	0xc214f9ab	-37.243816
37	0xc1a7410d	-20.906763
38	0x41c4ccff	24.600096
39	0x423c0d2e	47.01287
40	0x41d1e7fb	26.238272
41	0xc20c5642	-35.084236
42	0x4223f3d1	40.988102
43	0xc23e7e80	-47.623535
44	0x412f8255	10.969319
45	0x424d36cb	51.30351
46	0x429e7b0a	79.24031
47	0x40b57b9c	5.671339
48	0x418c28da	17.519947
49	0xc367183a	-231.09464
50	0xc1ae4256	-21.78239
51	0x4218e53b	38.223858
52	0x3e5ee5d2	0.21767357
53	0xc20d7ea1	-35.37366
54	0xbe8ef5c0	-0.27921867
55	0x4220d3a5	40.206684
56	0x424320f5	48.782185
57	0x4267025b	57.7523
58	0xc2b637d2	-91.109024
59	0xc3451af9	-197.10536
60	0xc2924bab	-73.14779
61	0x423141b3	44.31416
62	0xc1ffd543	-31.979132
63	0xc19f2e80	-19.897705
64	0x416cd22d	14.801312
65	0xc1683b7e	-14.514524
66	0x41abc789	21.47243
67	0x4178fe9a	15.562159
68	0x40be162a	5.9402056
69	0x4047427a	3.1134324
70	0xc2370593	-45.755444
71	0x417d1a30	15.818893
72	0x42048623	33.130993
73	0xc118c4fb	-9.548091
74	0xc21e1b34	-39.526566
75	0x41e99c5d	29.20135
76	0x4218f781	38.241703
77	0xc2422816	-48.539146
78	0x424301c0	48.75171
79	0x41e29d19	28.326708
80	0x42320f8e	44.51519
81	0xc2318155	-44.3763
82	0x41a7ba5f	20.966002
83	0xc2c713a7	-99.53838
84	0xc23e7077	-47.60983
85	0x422c2bf3	43.04292
86	0xc03257bb	-2.7866046
87	0x420fedcc	35.982224
88	0xc20e0040	-35.500244
89	0xc28b7548	-69.729065
90	0x414a9d76	12.663443
91	0x420c9cb6	35.153038
92	0x421c91d3	39.142406
93	0x4281f1db	64.972374
94	0x420919a3	34.275036
95	0xc1042334	-8.2585945
96	0x418b1ae4	17.38813
97	0xc22b781d	-42.8673
98	0xc221c422	-40.441536
99	0xc325737a	-165.45108
100	0x42490cfb	50.262676
101	0xc1a6e35d	-20.861017
102	0x422ffbf8	43.996063
103	0xc2a87171	-84.221565
104	0xc002458a	-2.0354943
105	0xc0149633	-2.3216674
106	0xc2919a64	-72.801544
107	0x4134478d	11.267468
108	0xc281c83f	-64.891106
109	0xc24b9a3b	-50.900616
110	0xc2560a4d	-53.51006
111	0x43259423	165.57866
112	0x435de8a7	221.9088
113	0x423bdeb3	46.96748
114	0x42e61a21	115.05103
115	0xc385135f	-266.15134
116	0xc29ad414	-77.414215
117	0xc1351913	-11.318622
118	0x4300c1bc	128.75677
119	0xc2d08316	-104.25603
120	0x430bdfbf	139.87401
121	0xc361fa42	-225.97757
122	0x417a3f44	15.640446
123	0x4306de89	134.86928
124	0x430475f4	132.46075
125	0xc30312e6	-131.07382
126	0xc23c9765	-47.147846
127	0x434acaf5	202.7928
128	0xc12bf1ef	-10.746566
129	0x40f28402	7.578614
130	0xc1025fb2	-8.148363
131	0xc105b567	-8.356788
132	0xbfcee6a3	-1.6164135
133	0xc06fe10b	-3.7481105
134	0xbfe7d8a6	-1.8112991
135	0xc13d61a7	-11.836341
136	0x3ef5cb2c	0.4800657
137	0xc077463a	-3.8636613
138	0x41414538	12.079399
139	0x40eb5877	7.354549
140	0xc1af48a1	-21.910463
141	0xc0b49d5d	-5.6442094
142	0xc1b2b231	-22.337008
143	0x41fe7011	31.80472
144	0x3edd9a61	0.43281844
145	0x41a94ea7	21.163404
146	0x41f7d4d5	30.978922
147	0xc1f1fd9b	-30.24883
148	0x413848fb	11.5178175
149	0x42afc45f	87.88354
150	0xc1785d75	-15.522817
151	0xc170a567	-15.040381
152	0x41f07faa	30.062336
153	0xc2132e18	-36.795013
154	0x41f8a8aa	31.082355
155	0xc2585fbf	-54.093502
156	0xc2ae1899	-87.04804
157	0x426ff2a9	59.986973
158	0xc288b8fd	-68.361305
159	0xc205e9e3	-33.478405
160	0x42377b06	45.87014
161	0xc29778a8	-75.73566
162	0x4196231d	18.767145
163	0x41dad929	27.356035
164	0xc2668be2	-57.636604
165	0x4288273a	68.076614
166	0x4230e180	44.220215
167	0xc2190c44	-38.26198
168	0xc2308559	-44.130222
169	0xc1a417f0	-20.511688
170	0x42923f3e	73.12352
171	0x406c7f4d	3.6952698
172	0x423c07e8	47.00772
173	0xc213ebdd	-36.980335
174	0x41a67952	20.809238
175	0x42bbbc7b	93.868126
176	0xc26da326	-59.409325
177	0x41ae51e7	21.789991
178	0xc09a4a93	-4.8216033
179	0x42220679	40.50632
180	0xc28c4118	-70.12714
181	0xc2868ace	-67.2711
182	0x42ac4e63	86.1531
183	0xc2ab5082	-85.65724
184	0xc2c36d88	-97.71393
185	0xc246f2ac	-49.736984
186	0xc2d83791	-108.10853
187	0x4293d4ee	73.91588
188	0xc2f86e13	-124.21499
189	0x422c9725	43.147602
190	0x423df5c8	47.49002
191	0x4307eadb	135.9174
192	0x3e06cc5b	0.13163893
193	0xbfc821f2	-1.5635359
194	0x3f884edb	1.0649065
195	0xbf475876	-0.77869356
196	0xbf1c5fba	-0.6108357
197	0xc0443d9e	-3.0662608
198	0x3f829163	1.0200619
199	0x3f04b0ed	0.5183247
200	0x3e347561	0.17622901
201	0xbf22de4a	-0.63620436
202	0xbf117146	-0.56813467
203	0x3d1cc52e	0.038273983
204	0xbf887e38	-1.0663519
205	0x3f4bcca8	0.79609156
206	0x3fd7bb90	1.6854115
207	0xbec57fd2	-0.38574082
208	0xc03ae859	-2.9204314
209	0x4029bd38	2.652174
210	0xc03eeaae	-2.9830737
211	0xc010aa9e	-2.2604136
212	0xbeea6d57	-0.45786545
213	0xbf2de289	-0.6792379
214	0xbf10d25b	-0.56570977
215	0x40196fdc	2.3974524
216	0x403cbdc0	2.9490814
217	0x3d894cb1	0.06704081
218	0x3f1ece10	0.62033176
219	0x3f65dc7b	0.8978955
220	0x3f4533f8	0.77032423
221	0xc067b43e	-3.620376
222	0x3f53eb3e	0.82780826
223	0x3f8577f2	1.042723
224	0xc017186f	-2.3608663
225	0x3fd58d95	1.6683832
226	0xc029ecf3	-2.6550872
227	0xbf9af50a	-1.210603
228	0xc0a18021	-5.0468907
229	0x3f584ac3	0.8448908
230	0x3f44de62	0.7690183
231	0x4115fabe	9.373716
232	0x3f99c136	1.2012088
233	0xc08b5389	-4.353947
234	0xbf83d509	-1.0299388
235	0xc102720d	-8.152844
236	0x40b8c7da	5.774396
237	0x405a27f5	3.4086888
238	0x40d52f07	6.6619906
239	0xbff1fc80	-1.8905182
240	0x40318bb3	2.7741516
241	0x40cdd010	6.4316483
242	0x4091273d	4.53604
243	0x415f8fc7	13.972602
244	0x4109f9b3	8.623462
245	0xbf9e3e69	-1.2362796
246	0x3f6ba687	0.92050976
247	0x40dfab57	6.9896655
248	0xc1380f38	-11.5037155
249	0x40194534	2.3948488
250	0x3eb41bca	0.3517745
251	0xc0943868	-4.6318855
252	0x3ec39373	0.38198432
253	0x408ddde9	4.4333386
254	0x407e149f	3.9700086
255	0x404d2cab	3.2058513

bias f4 [32]
0	0xc2ba1254	-93.0358
1	0xc25e05e8	-55.505768
2	0xc1377361	-11.465669
3	0xc0d3ce2c	-6.6189175
4	0xc28584a4	-66.75906
5	0xc22b1bfc	-42.77733
6	0xc214964f	-37.146786
7	0xc2810f60	-64.53003
8	0xbf64d354	-0.8938496
9	0xc2ab9f76	-85.81145
10	0xc256d640	-53.70923
11	0xc25d26dc	-55.28795
12	0xc117cd01	-9.48755
13	0xc28d137b	-70.53805
14	0xc2396617	-46.349697
15	0xc28b9945	-69.799355
16	0xc19202f6	-18.251446
17	0xc19732de	-18.899837
18	0xc2b71bb1	-91.554085
19	0xc13cdd7b	-11.804072
20	0xc2b6e2f1	-91.443245
21	0xbfc1fd34	-1.5155396
22	0xc251c00e	-52.437553
23	0xc29bf28d	-77.97373
24	0x3ff504e3	1.9142116
25	0xc12243b9	-10.141534
26	0xc221632c	-40.346848
27	0xc2b12a1c	-88.582245
28	0xc252c0a3	-52.68812
29	0xc02b0b80	-2.672577
30	0xc208f923	-34.243298
31	0xc26196cc	-56.397263

weight f4 [1, 32]
0	0x3efe5779	0.4967611
1	0x3ed660e4	0.41870797
2	0xbe22a0e5	-0.15881689
3	0x3e53e6c6	0.20693502
4	0x3ed3c25e	0.41359228
5	0x3e671f84	0.22570616
6	0x3e51225b	0.20423262
7	0xbf19012b	-0.5976741
8	0xbe3b98b9	-0.18319978
9	0x3f000722	0.50010884
10	0x3e99ab08	0.300133
11	0x3e81fc8f	0.25388
12	0x3e8a46e0	0.27007198
13	0xbe9dc0b0	-0.3081107
14	0x3e4bb969	0.19894947
15	0xbefc8fa6	-0.49328345
16	0x3e51a0b2	0.20471457
17	0x3e433fa5	0.19067247
18	0x3eb64dc6	0.3560621
19	0xbe537244	-0.20649058
20	0x3ea99ad7	0.33125946
21	0x3e22c1bd	0.15894218
22	0x3e1b6a71	0.15177323
23	0x3eaa794b	0.33295664
24	0x3e602b3b	0.21891491
25	0x3e2499cc	0.16074294
26	0x3e1952f4	0.1497305
27	0x3edcda3c	0.4313525
28	0x3ea65b31	0.3249145
29	0xbe476f97	-0.19476162
30	0x3e2c4ec9	0.16826929
31	0x3ea6f933	0.32612
