DNN-4000.pt (torch, 18911 bytes, 3 tensors)

weight f4 [32, 128]
-22.146646 5.3736567 11.784515 -26.802328 -15.651227 -10.892084 11.112601 6.6763034
-74.11591 9.799284 -9.482758 -7.130143 9.837782 44.240044 26.942188 -17.857382
-25.37998 27.598465 -79.798775 -15.605469 20.59627 -79.187706 -56.564632 -42.359837
31.998308 -54.027874 3.660749 -56.635464 85.38583 27.257425 -64.66122 13.826903
52.689156 -110.97254 -39.74579 -154.25758 -57.6763 -43.013634 45.508617 63.312943
42.4366 -93.27342 83.350655 -79.20389 -21.585678 54.070065 82.89762 -10.230573
-8.855847 -311.8767 -26.287632 80.421844 18.94131 -44.733078 -51.91346 24.055092
-3.8144825 70.32141 -156.6127 -248.87268 -108.02911 54.681053 -62.26339 -41.267128
15.607426 -16.148209 20.226452 18.843596 8.682147 -1.4870148 -37.608875 18.324581
36.731716 -10.669941 -46.79182 26.594223 41.694187 -49.43078 52.661686 30.08953
56.847725 -63.946777 30.71638 -123.78197 -57.98461 53.823704 -13.121879 27.483904
-35.28857 -66.809944 36.807167 43.199 58.26027 67.408134 51.783413 -47.434605
8.355457 -59.091885 -79.41384 -188.21533 76.49467 1.6666745 43.241478 -112.83491
-10.876782 -8.148967 -106.156685 27.076408 -77.97164 -48.34359 -51.832417 189.26973
210.11847 119.05303 167.74341 -278.84732 -132.04555 -22.635695 140.01128 -145.99442
135.12746 -283.98758 -4.728787 122.4211 146.03165 -202.75638 -87.10358 244.99408
-12.40974 7.513211 -7.8941045 -7.513289 -1.5109878 -6.1162887 -1.4194738 -12.554013
2.5869305 -2.0509484 12.127013 8.1617 -30.547857 -8.841382 -30.75303 33.14813
-1.0694426 22.416407 35.432602 -52.078255 15.2812 91.0063 -19.040161 -8.628492
33.63093 -57.8879 28.673365 -58.38503 -96.25316 72.80901 -83.79743 -36.241734
56.90365 -70.75793 25.39257 20.51819 -61.224308 81.41339 36.765705 -57.277035
-53.90649 -40.35775 100.21313 1.9433053 58.004673 -53.847736 23.715214 105.471825
-62.655453 26.061918 -6.792702 59.578484 -74.905396 -68.12639 98.909775 -104.60896
-107.9733 -47.986717 -107.965515 78.796776 -147.33305 58.275856 48.99526 147.5087
0.13741878 -1.5166606 1.6910887 -0.694004 -0.46959993 -3.0350182 1.1536108 0.67699504
-0.055804595 -0.5797757 -0.0006793123 -0.08000659 -1.4477876 0.8640839 1.3343266 0.16519554
-2.6231213 3.5932577 -2.972475 -1.8257703 -0.62104243 0.21317334 0.08593801 2.001459
3.3730145 0.20036653 0.67561394 0.50260115 0.7272768 -4.1513276 0.81866163 0.61000067
-2.695451 1.3437542 -1.8194196 -0.7286541 -4.659794 1.6638318 0.15202954 9.546058
1.8801538 -4.3266144 -0.6256247 -6.9455795 5.6646643 0.91924495 4.7722273 -2.2220469
1.8376048 6.126876 2.0539224 8.924028 4.7721925 -1.925676 0.6736847 8.12416
-11.24558 3.1135492 0.66309166 -2.8169544 -0.33050278 3.6651292 2.3633807 0.777687
00000000: 552c b1c1 fff4 ab40 608d 3c41 2b6b d6c1
00000010: 6d6b 7ac1 fa45 2ec1 37cd 3141 47a4 d540
00000020: 593b 94c2 dec9 1c41 60b9 17c1 222a e4c0
00000030: 8e67 1d41 cef5 3042 9a89 d741 ebdb 8ec1
00000040: 330a cbc1 a8c9 dc41 f998 9fc2 00b0 79c1
00000050: 29c5 a441 1b60 9ec2 2f42 62c2 7970 29c2
00000060: 89fc ff41 8b1c 58c2 b649 6a40 b78a 62c2
00000070: 8cc5 aa42 350f da41 8b52 81c2 ff3a 5d41
00000080: b2c1 5242 f1f1 ddc2 b0fb 1ec2 f141 1ac3
00000090: 88b4 66c2 f60d 2cc2 d308 3642 7440 7d42
000000a0: 14bf 2942 fe8b bac2 89b3 a642 6468 9ec2
000000b0: 78af acc1 bf47 5842 95cb a542 6db0 23c1
000000c0: 8db1 0dc1 38f0 9bc3 124d d2c1 fcd7 a042
000000d0: ce87 9741 acee 32c2 62a7 4fc2 d470 c041
000000e0: 7b20 74c0 90a4 8c42 da9c 1cc3 68df 78c3
000000f0: e80e d8c2 66b9 5a42 b60d 79c2 8a11 25c2
00000100: 04b8 7941 882f 81c1 c6cf a141 afbf 9641
00000110: 13ea 0a41 8056 bebf 7d6f 16c2 be98 9241
00000120: 47ed 1242 14b8 2ac1 d32a 3bc2 f8c0 d441
00000130: d9c6 2642 1eb9 45c2 91a5 5242 5cb7 f041
00000140: 1264 6342 80c9 7fc2 25bb f541 5e90 f7c2
00000150: 3ef0 67c2 794b 5742 37f3 51c1 09df db41
00000160: 7f27 0dc2 b19e 85c2 8a3a 1342 c7cb 2c42
00000170: 840a 6942 f7d0 8642 3722 4f42 09bd 3dc2
00000180: f4af 0541 175e 6cc2 e3d3 9ec2 2037 3cc3
00000190: 45fd 9842 9755 d53f 46f7 2c42 79ab e1c2
000001a0: 4d07 2ec1 2b62 02c1 3950 d4c2 7c9c d841
000001b0: 7bf1 9bc2 d65f 41c2 6554 4fc2 0d45 3d43
000001c0: 541e 5243 271b ee42 50be 2743 756c 8bc3
000001d0: a90b 04c3 e715 b5c1 e302 0c43 92fe 11c3
000001e0: a120 0743 69fe 8dc3 3952 97c0 9ad7 f442
000001f0: 1a08 1243 a2c1 4ac3 0835 aec2 7cfe 7443
00000200: 4c8e 46c1 396c f040 819c fcc0 dd6c f0c0
00000210: 0c68 c1bf a3b8 c3c0 51b1 b5bf 3ddd 48c1
00000220: 4590 2540 bd42 03c0 3f08 4241 5396 0241
00000230: 0362 f4c1 4d76 0dc1 3506 f6c1 af97 0442
00000240: 7fe3 88bf cd54 b341 fcba 0d42 2250 50c2
00000250: cc7f 7441 3a03 b642 4052 98c1 4e0e 0ac1
00000260: 1386 0642 368d 67c2 0d63 e541 458a 69c2
00000270: 9e81 c0c2 379e 9142 4998 a7c2 89f7 10c2
00000280: 569d 6342 0f84 8dc2 fc23 cb41 4125 a441
00000290: b1e5 74c2 a8d3 a242 1510 1342 af1b 65c2
000002a0: 3fa0 57c2 566e 21c2 1f6d c842 3abe f83f
000002b0: c904 6842 1564 57c2 c2b8 bd41 93f1 d242
000002c0: 2f9f 7ac2 cf7e d041 d15d d9c0 5e50 6e42
000002d0: 90cf 95c2 b640 88c2 ced1 c542 ca37 d1c2
000002e0: 54f2 d7c2 66f2 3fc2 58ee d7c2 f397 9d42
000002f0: 4355 13c3 7a1a 6942 25fb 4342 3a82 1343
00000300: 82b7 0c3e ef21 c2bf 9875 d83f 3faa 31bf
00000310: 676f f0be bd3d 42c0 85a9 933f 8c4f 2d3f
00000320: 5c93 64bd 2e6c 14bf e013 32ba 7fda a3bd
00000330: 1b51 b9bf 9a34 5d3f 37cb aa3f 0529 293e
00000340: 38e1 27c0 eff7 6540 083d 3ec0 d7b2 e9bf
00000350: a3fc 1ebf 1d4a 5a3e 4400 b03d e717 0040
00000360: 78df 5740 e22c 4d3e 09f5 2c3f 78aa 003f
00000370: d02e 3a3f add7 84c0 cf93 513f 0129 1c3f
00000380: 4582 2cc0 2300 ac3f bee2 e8bf 1389 3abf
00000390: 081d 95c0 71f8 d43f a2ad 1b3e a7bc 1841
000003a0: e1a8 f03f a073 8ac0 f128 20bf 3042 dec0
000003b0: ee44 b540 a353 6b3f 16b6 9840 0436 0ec0
000003c0: a236 eb3f 5e0f c440 7773 0340 d2c8 0e41
000003d0: cdb5 9840 8d7c f6bf 9a76 2c3f 8ffc 0141
000003e0: e5ed 33c1 6444 4740 60c0 293f fb48 34c0
000003f0: a937 a9be 7a91 6a40 a141 1740 7f16 473f

bias f4 [32]
-110.639534 -62.632126 -11.901389 -7.5009484 -75.98142 -51.34809 -41.74372 -74.680244
-0.78613913 -108.22474 -65.068596 -83.7419 -10.560325 -113.35063 -54.72242 -82.822174
-28.0491 -20.999 -113.61886 -11.598015 -121.686134 -1.5533302 -82.62707 -99.799126
2.1061578 -10.244859 -50.506336 -120.65843 -60.22685 -2.2837718 -37.43088 -66.40503
00000000: 7147 ddc2 4c87 7ac2 176c 3ec1 c507 f0c0
00000010: 7df6 97c2 7264 4dc2 92f9 26c2 495c 95c2
00000020: 6a40 49bf 1173 d8c2 1f23 82c2 da7b a7c2
00000030: 17f7 28c1 86b3 e2c2 c2e3 5ac2 f4a4 a5c2
00000040: 8f64 e0c1 f4fd a7c1 db3c e3c2 7891 39c1
00000050: 4d5f f3c2 86d3 c6bf 0f41 a5c2 2799 c7c2
00000060: 4acb 0640 f1ea 23c1 7d06 4ac2 1e51 f1c2
00000070: 4be8 70c2 5129 12c0 39b9 15c2 60cf 84c2

weight f4 [1, 32]
0.4750066 0.42514887 -0.16532895 0.2013943 0.39988402 0.25920224 0.19530897 -0.36919487
-0.17584267 0.42858854 0.30975923 0.33694962 0.19263287 -0.48565593 0.20677692 -0.33025017
0.19845766 0.20703037 0.30449146 -0.23140688 0.3417633 0.13926491 0.39001805 0.35109022
0.21472947 0.18583584 0.15901744 0.41825458 0.2823573 -0.18456736 0.15529476 0.32741395
00000000: 1134 f33e 1dad d93e fe4b 29be 4f3a 4e3e
00000010: 99bd cc3e 28b6 843e 13ff 473e 1c07 bdbe
00000020: 1a10 34be f56f db3e c398 9e3e a984 ac3e
00000030: 8d41 453e e5a7 f8be 54bd 533e 8d16 a9be
00000040: 7c38 4b3e c5ff 533e 4ee6 9b3e edf5 6cbe
00000050: 99fb ae3e 769b 0e3e 72b0 c73e 19c2 b33e
00000060: 0be2 5b3e c04b 3e3e 78d5 223e 7725 d63e
00000070: 2391 903e 3aff 3cbe 9705 1f3e cda2 a73e
