DNN.pt (torch, 18911 bytes, 3 tensors)

weight f4 [32, 128]
00000000: 2cb4 adc0 8ecb 1f40 1451 8440 181d 9fc0
00000010: 72de 05c0 4175 1e3f 0c20 ca40 c61a 213f
00000020: cb59 fac0 0739 c8c0 ba9e 26c1 a36c 91c0
00000030: 2a4d 453d 27fb d540 d3c4 1c41 6eb7 aac0
00000040: a916 cbc0 f049 1841 67e8 04c1 79e6 cc3e
00000050: c185 9940 d741 89c1 4872 9bc1 78cb 9ec1
00000060: ff93 df3d f849 45c1 cae1 3941 6185 a5c0
00000070: eabe e940 4ed2 20c1 2cce 7cc0 e0e9 bc40
00000080: da1f 28c1 2a45 97c0 7625 bbc0 c95a d4c0
00000090: 51ba 2341 5309 d640 33fb 3741 a319 85c1
000000a0: 2a4a 87c0 172f 7f41 15bf 1ac1 32c0 20c1
000000b0: c5d4 f841 55ed d641 b3c0 2042 0365 ad41
000000c0: 5d78 8b41 dcca 3cc2 d792 863f c886 2840
000000d0: a53b b1c0 3bba 05c1 d532 f5c1 5de2 fc41
000000e0: 302f 5c42 634e 2d42 fbdc d1c1 7f01 50c2
000000f0: 43ee bac1 ff66 28c1 1afa 013e 451c 0042
00000100: 3cba a840 1354 86c0 92d6 c740 633a b040
00000110: bc61 5f3f 8fff f73f de9b 86c1 32fc 9b40
00000120: 7ac5 4a41 bf51 59bf f19c 69c1 e106 4c41
00000130: bd84 f041 203c f1c1 20a4 0142 5bbc 9a41
00000140: 4f98 cb41 c6db 18c1 7078 1541 212f f4c1
00000150: f610 2cc1 8fa0 b341 1fe3 b240 5c62 7741
00000160: ee25 5cc1 fbae abc1 1392 9840 3365 fe40
00000170: de19 b941 4f62 0b42 8364 1141 3cc7 c640
00000180: 0c15 88c0 0e28 0ac2 4892 5cc1 ff32 95c2
00000190: b662 5141 9a9a 3940 215b a641 4b88 f3c1
000001a0: e753 e1bf 29dd 8540 41b6 aac1 ca70 9c40
000001b0: 203b 1dc2 55f4 1fc1 bffd 68c1 f57d 6742
000001c0: b788 d942 247d da41 6b21 2b42 3f4b e2c2
000001d0: 6dff 1ec2 ea65 5cc0 8d98 9042 092f 20c2
000001e0: 86fa 7942 954f 86c2 0e84 0240 028f 9142
000001f0: abef 0f42 9a8a 5dc2 9bad 83c1 2fd6 be42
00000200: 6c35 c5c0 43d9 bc40 0d7f adc0 0596 ebc0
00000210: 7496 1dbf 25de 973d a66c 20c0 02d9 d3c0
00000220: d999 c0bf 7609 61c0 cb0d 0141 83f4 7c40
00000230: 09a6 1cc1 ccbd 9bc0 bd4f 5fc1 a212 a941
00000240: ed67 2b40 1417 6e41 8430 ad41 a45d 86bf
00000250: 41a8 d540 29d5 7c42 f67f 17c1 226f 34c1
00000260: c0e2 df41 0119 f9c0 632e e241 8c04 23c2
00000270: 2140 5ec2 5358 0f42 2fd1 edc1 3ac8 a1c1
00000280: 5cf5 1942 b2f1 30c2 548f 9340 156c 3e41
00000290: 6ce2 13c2 1e2a 4042 6f1a 0242 01eb 25c1
000002a0: 05a6 c4c1 a87d 02c0 37da ae41 ab1d e7c0
000002b0: f68f 0ac0 beb1 e2c0 bfef f441 d33f 7042
000002c0: 0cd6 20c2 620d 9241 c002 1fc1 2011 1542
000002d0: 2cf4 1ec2 bff2 46c2 2a01 6342 e17b 2ac2
000002e0: 448a 90c2 4f7b 0bc2 a13c 84c2 6b0a 1642
000002f0: e500 89c2 ff76 9f41 3b65 e441 c3a2 b742
00000300: 835d 183f c197 19c0 9b20 ce3f a658 fb3c
00000310: 5f9d a7be f0a7 27c0 4be9 ed3e 42d0 9d3d
00000320: bee5 a9bd 4ae4 f4be de66 96be 2f32 5dbd
00000330: 964b 95bf d886 343f 584f 7c3f c1a8 9fbe
00000340: b5e5 33c0 37dd 2940 bd3a 12c0 854d dfbf
00000350: c93c 0cbf 8c57 9a3d 88b1 e0be c3ef 3740
00000360: 26b5 2c40 97f6 963e 2ef7 c33e 226f 3e3f
00000370: b1ab c9be 7b02 62c0 0625 523f 20f5 3fbd
00000380: 6ce2 aabf 63bb 0040 f8fe 20c0 088f 49bf
00000390: 2315 8fc0 dd02 fd3f 90f8 3f3f c852 1241
000003a0: 7dca f03f a1b7 a2c0 96cc d3bf b566 9fc0
000003b0: e7ec ad40 563a b43f 1af4 5240 fda6 45c0
000003c0: 5c2c 39bd 22b4 b140 240c d03f 5cec 1741
000003d0: 40a6 a640 81d5 f8bf bc32 3040 e985 9c40
000003e0: 3148 2ec1 cb58 5240 8ec8 943e d922 a4bf
000003f0: 8c0d 20bf 0af8 e640 2513 04bf 5550 1d40
-5.4282436 2.496799 4.134897 -4.9723015 -2.091702 0.61897665 6.316412 0.6293148
-7.823461 -6.2569613 -10.413752 -4.5445113 0.048169293 6.6869082 9.798053 -5.3348913
-6.346516 9.518051 -8.306739 0.40019587 4.7975774 -17.157148 -19.430801 -19.84935
0.109169 -12.330559 11.617624 -5.1725316 7.304555 -10.051344 -3.9500837 5.903549
-10.507776 -4.727193 -5.848323 -6.636082 10.232987 6.688638 11.498828 -16.637518
-4.227803 15.948997 -9.671651 -10.046923 31.103891 26.865885 40.188183 21.674322
17.433771 -47.198105 1.0513562 2.6332264 -5.538531 -8.357966 -30.64982 31.610529
55.04608 43.32655 -26.2329 -52.00146 -23.366339 -10.525146 0.12693062 32.027607
5.2727337 -4.197763 6.2449427 5.5071273 0.87258506 1.9374865 -16.826107 4.8745356
12.673212 -0.8489036 -14.600816 12.751679 30.064814 -30.154358 32.41028 19.34197
25.44937 -9.553656 9.341904 -30.523012 -10.754141 22.453398 5.5902247 15.4615135
-13.75926 -21.46044 4.7678313 7.9498534 23.13763 34.846004 9.087039 6.2118206
-4.252569 -34.539116 -13.785713 -74.5996 13.086599 2.9000611 20.794497 -30.44155
-1.760373 4.183247 -21.338991 4.888768 -39.30774 -9.997151 -14.56195 57.873005
108.76702 27.311104 42.782635 -113.146965 -39.74944 -3.4437203 72.29795 -40.045933
62.49465 -67.15543 2.03931 72.77931 35.98405 -55.385353 -16.459768 95.41833
-6.162771 5.901521 -5.421759 -7.362063 -0.615577 0.074154176 -2.5066314 -6.62024
-1.504695 -3.5162024 8.065867 3.9524238 -9.790536 -4.8669186 -13.956967 21.134098
2.6782181 14.880634 21.64869 -1.0497327 6.676789 63.208164 -9.46874 -11.277132
27.985718 -7.784302 28.27265 -40.75444 -55.562626 35.836254 -29.72714 -20.222767
38.48961 -44.23603 4.611246 11.901387 -36.971115 48.04113 32.525814 -10.369874
-24.581064 -2.0389194 21.85655 -7.2223716 -2.1650367 -7.084197 30.617064 60.06233
-40.20903 18.256535 -9.938171 37.266724 -39.73845 -49.737057 56.751137 -42.620975
-72.27005 -34.87042 -66.118416 37.510174 -68.50175 19.933104 28.549429 91.817894
0.5951769 -2.3998873 1.61037 0.03068192 -0.32737252 -2.619625 0.4646705 0.07705738
-0.08295773 -0.4783042 -0.29375356 -0.054002937 -1.1663692 0.70518255 0.9855857 -0.31183437
-2.8108952 2.654127 -2.284835 -1.7445532 -0.5478025 0.075362295 -0.43885446 2.874009
2.6985564 0.29485008 0.3827452 0.74388325 -0.39388803 -3.5314014 0.82087743 -0.04686463
-1.3350348 2.0114372 -2.515562 -0.78733873 -4.47133 1.9766499 0.7498865 9.14521
1.8811795 -5.0849156 -1.654681 -4.9812875 5.4351687 1.4080303 3.2961488 -3.0883172
-0.04520832 5.553239 1.6253705 9.495205 5.207794 -1.9440156 2.7530966 4.8913465
-10.892625 3.2866695 0.2905926 -1.2823135 -0.6252067 7.217778 -0.5159171 2.458028

bias f4 [32]
00000000: 186c 1bc2 4ba3 04c2 67ad 00c1 671e 44c0
00000010: 23a6 17c2 a756 f3c0 0f9f aec1 7d48 e3c1
00000020: d0d9 52bf a601 08c2 c554 fec1 8c03 f7c0
00000030: eea7 08c1 7ebc eac1 0e5a 95c1 cfdb f8c1
00000040: b056 05c1 5432 2dc1 bf88 fac1 f095 ecc0
00000050: 60bd 97c1 8ea5 43bf 6da2 c4c1 e289 84c1
00000060: a238 bd3f e5ae bcc0 4d1c 87c1 65af 0ac2
00000070: 7be6 e5c1 f80f 0cc0 80ed 1dc1 ab6c d7c1
-38.85556 -33.159466 -8.042335 -3.0643556 -37.912243 -7.6043277 -21.827665 -28.410395
-0.82363605 -34.00161 -31.791391 -7.719183 -8.540998 -29.342037 -18.668972 -31.107328
-8.333664 -10.824787 -31.31677 -7.393303 -18.967468 -0.7642449 -24.57931 -16.567326
1.4782908 -5.8963494 -16.888819 -34.671284 -28.73754 -2.1884747 -9.870483 -26.92806

weight f4 [1, 32]
00000000: 68c5 3c3f b375 db3e 736f 43be 4d25 5d3e
00000010: f47a 133f a9b3 db3d 1297 5a3e 8b53 f3be
00000020: ccfb 30be 73bb 7d3f fab1 c33e d6ef 103e
00000030: 6750 543e 8dcd 46be f75b 4a3e 63f7 02bf
00000040: 96b6 5b3e 7d06 3f3e ee01 013f 76d6 3cbe
00000050: b9a2 943e 9a66 2b3e 69a5 923e b0e1 b03e
00000060: 764c 703e 75d1 1f3e e68b 113e 58c0 0f3f
00000070: 3385 a73e 6772 4dbe 3bb7 193e 9617 043f
0.7373872 0.42863235 -0.19085483 0.2159626 0.57609487 0.10727627 0.21346691 -0.47524676
-0.17283553 0.9911415 0.38221723 0.1415399 0.20733796 -0.19414349 0.19761644 -0.5115873
0.2145637 0.18654819 0.5039357 -0.18441185 0.29030398 0.16738358 0.28641823 0.34547186
0.23466668 0.15607245 0.14213523 0.5615287 0.3271881 -0.20063172 0.15011303 0.5159849
