MLP.pt (torch, 311447 bytes, 6 tensors)

weight f4 [200, 283]
00000000: 6d3c a43c dd55 413b 75ee dabb 20c3 a9bc
00000010: afb9 f1bb 694a 56bb 0279 7bbb 7a47 0f3c
00000020: 2ef4 753b c7fe f73b 35ac 22bc 5c60 ebbb
00000030: 5920 59bb 96d6 88bb f8b5 ac3b 9c81 1f3c
00000040: 9e5f ab3a aa10 c83b 59ca 89bb 8eac 593b
00000050: 4d5c 93ba 5779 adba 39a9 a73b 5d90 203c
00000060: f26b 33bb 0066 b0bb afe3 6c3b d21d fabb
00000070: 7994 09bc d8d9 343c 213e 22bc dffe 8bba
00000080: 5c44 f03b 098f d83a 971e e43b 6a58 1b3a
00000090: 17b2 64bb a205 66bb 3c50 4ebc 0421 b93b
000000a0: 29ff ad3b d90a 34bc 42ee 34bc c9ca 8e3a
000000b0: 9881 9bbc ca45 abb9 25d3 33bc d460 923c
000000c0: bbce f13c 6b2f 3dbb 8952 893a 09d7 65bc
000000d0: 947a 803c 0185 bb3b e70c b9bc 3032 eebb
000000e0: 062b 713c 2244 84bc b926 f03b ebef 82bc
000000f0: 9489 8c3b 7767 fe3b c142 2f3c 53f0 663c
00000100: 6917 61bc 2c20 0dbb 25ba 6ebb a0d5 7a3a
00000110: 07dc b1bb a2a5 3cbc 04f1 e33b e2c1 623b
00000120: a86f 95bb 0a17 823c bd04 493c 6bcc 343b
00000130: 748b 06bc 4339 6e3c 6d65 313c 8c67 723c
00000140: b573 debb 53e4 b43c 25e3 553c d990 a4bb
00000150: 62ae 83ba b4b6 083b f001 13bc 6647 d9bb
00000160: ae14 9ebb 5fc6 8cbb 95f8 6f3b fd8c 3bbc
00000170: cb9f f239 4847 1c3c 8bd7 bf3b 7167 93bb
00000180: d7bf 3c3c 895c 57b9 0e01 cbba 80a7 7dbc
00000190: 1dea 8abb e031 ba3b a4ce 35bb efe8 073b
000001a0: 20eb 063b 9558 b4bb b358 ba3c 5093 9b3c
000001b0: 947d 673c 47a3 7fbc 24ef d6ba 3f59 853a
000001c0: 6f93 a8bb 751a c2bb 3390 74bc 3dd5 35bb
000001d0: 2fd8 39bc 2267 21bb e703 48bc 1437 493b
000001e0: c103 563c 2eba 4c3b 2a64 723b b866 153a
000001f0: dbb1 a63a b0ef 36bc 0b4b d43b 3eb8 f43b
00000200: ed66 c93b 4bfa e939 e78f 763c f464 e1bb
00000210: f2a9 f63b b971 0b3a e43a b0bb 4920 073b
00000220: fba2 0e3c c782 01bb d40c 1fbc b786 ab3a
00000230: 9d69 693b eaf9 a63b a236 573b 3241 88bb
00000240: bde2 2f3b c962 11bc 9e15 01bc c580 11bc
00000250: 2d37 b63a 8be2 7e3b 86ea deba f35b 70ba
00000260: dcc1 323b d7ed c53b e529 feba 8116 bfbb
00000270: 80d1 b83c 8189 18bb ae17 d6ba 06f8 e0bb
00000280: e06e dabb 26d1 1b3c d61f aa3b 8c01 0fba
00000290: 80cc 27bc d2e7 aabc f0c5 e8bb 066f bab9
000002a0: f0fa 68bb 40c5 e03b 5483 80bc 0668 333c
000002b0: e081 6339 aad0 46bc 0d8c 09bc 4a6f a8bc
000002c0: ea8b bfbb 53b7 9abc c889 23bb f81c 993c
000002d0: 141f e0bb 6981 983a 09c9 95bc e973 eaba
000002e0: 3e4f 39bb 0ba9 bdbb b864 e0bb a935 1739
000002f0: 7fe6 84bc 703c 36bc 77a0 b6bc 84bb a1bc
00000300: c48a 883c a267 89bc 4bb7 173b 675e d4bc
00000310: eab6 7abc 84e9 3e3c a0aa 69bb 0de1 8b3b
00000320: 82de 11bc 37ef ceba cf4d e03b 4019 c1bb
00000330: 7886 e43b 1ea2 613a 09fa 81bb 9edd 213c
00000340: 8da0 3a3c 3093 b83b 9c21 5ebb d4db 383c
00000350: e185 44bc 5024 723c 770c 5d3b 6f88 7fbb
00000360: d217 46bc 83c7 99bb d00c 66bb 1c69 f83b
00000370: 730f fdbb e8d6 113c 2996 a7bc 13d0 2f3c
00000380: cd3a a33b f979 48bb 4580 a4ba 7fe2 1fbb
00000390: a0fc f3bc e49c d83b 2f06 50bc a9c3 a2bc
000003a0: f9df 4bbc 0980 9a3b 29a9 44bc 2131 3dba
000003b0: fb60 9bbc f241 5dbb a054 f93b fcf9 763b
000003c0: 98f8 4d3c 985a 16bb e071 4fbb 296a 8abc
000003d0: a4b3 063d 0a29 e13b 0917 243c 402b bd3b
000003e0: a892 0cbc 1450 3c3b a4de 8abb f33e f13b
000003f0: 1b37 20bc 991b 823a 9992 513c a45b 17ba
0.020048345 0.0029500641 -0.0066812583 -0.020722926 -0.0073768715 -0.003269816 -0.0038371687 0.008745069
0.0037529576 0.0075682136 -0.009928753 -0.007183118 -0.0033130853 -0.0041759713 0.005270716 0.009735491
0.0013074761 0.006105502 -0.00420503 0.0033214423 -0.0011242718 -0.0013235015 0.0051166085 0.009800044
-0.0027377573 -0.005383253 0.0036146452 -0.0076329494 -0.008397215 0.011038266 -0.009902508 -0.0010680816
0.007332368 0.001652212 0.0069616544 0.00059259555 -0.003489619 -0.0035098572 -0.012592372 0.0056496877
0.0053099585 -0.010988914 -0.011043133 0.0010894175 -0.018982694 -0.00032667659 -0.010975634 0.017868437
0.029517522 -0.0028867375 0.0010476868 -0.014028319 0.01568345 0.0057226424 -0.02258916 -0.0072691664
0.01471973 -0.01614577 0.007328835 -0.015983542 0.0042888615 0.007763799 0.010697068 0.014095384
-0.013738492 -0.0021534069 -0.0036426869 0.0009568576 -0.0054278406 -0.011514099 0.0069562215 0.0034600426
-0.0045604296 0.015880127 0.012269196 0.0027587663 -0.008211959 0.014540019 0.010827404 0.014795195
-0.0067886957 0.02208153 0.013054644 -0.00502215 -0.0010046477 0.0020860853 -0.00897263 -0.006630826
-0.0048242426 -0.0042961086 0.0036616672 -0.011447188 0.00046276892 0.009538479 0.005854552 -0.004498415
0.011520348 -0.0002053847 -0.0015487985 -0.01548183 -0.0042393343 0.005682215 -0.0027741576 0.0020738204
0.0020586923 -0.005503724 0.022747373 0.018991143 0.014129061 -0.015602893 -0.0016398174 0.0010173692
-0.0051445286 -0.005923564 -0.014926958 -0.0027745508 -0.011343046 -0.0024628122 -0.012207962 0.0030702995
0.013062418 0.0031238901 0.0036985972 0.0005699205 0.00127178 -0.011165544 0.0064786724 0.0074682524
0.006146303 0.00044627706 0.015048957 -0.0068784896 0.0075275833 0.0005319375 -0.005378114 0.0020618609
0.00870585 -0.0019761787 -0.009707648 0.0013086413 0.003561593 0.00509571 0.003283896 -0.0041581625
0.0026838027 -0.00887365 -0.007878689 -0.008880799 0.0013901942 0.0038892354 -0.0017007149 -0.0009168975
0.0027276194 0.0060403156 -0.0019391148 -0.00583154 0.022560835 -0.0023275318 -0.0016333961 -0.006865504
-0.0066660494 0.009510314 0.0051917834 -0.00054552476 -0.010241628 -0.020862494 -0.007103674 -0.00035559403
-0.003554996 0.0068594515 -0.015687622 0.010950094 0.00021696789 -0.01213471 -0.008395207 -0.02056088
-0.0058455365 -0.018886244 -0.002495395 0.018690571 -0.0068396423 0.0011635247 -0.018284338 -0.0017887327
-0.0028275992 -0.0057879738 -0.006847944 0.00014420472 -0.01622319 -0.011122808 -0.022293312 -0.019742735
0.016667731 -0.016773049 0.0023150023 -0.02592392 -0.015302399 0.011652354 -0.003565468 0.0042687715
-0.008903148 -0.0015787844 0.006845213 -0.0058929026 0.0069740377 0.0008607226 -0.003966574 0.009879498
0.011390817 0.0056327805 -0.0033894544 0.01128288 -0.01199481 0.014779165 0.0033729353 -0.0038991233
-0.01209064 -0.004692973 -0.0035102852 0.0075808894 -0.007722789 0.008901335 -0.020457344 0.010730761
0.004981375 -0.003059028 -0.0012550434 -0.0024396477 -0.029783547 0.0066104997 -0.012696787 -0.019868689
-0.012443536 0.00471497 -0.012003222 -0.00072170986 -0.018967142 -0.003376123 0.007608965 0.0037685623
0.012571476 -0.0022942182 -0.0031653568 -0.016896324 0.032886162 0.0068713473 0.010015258 0.005772978
-0.008579887 0.0028734254 -0.0042379666 0.0073622405 -0.009778763 0.0009926438 0.012791299 -0.00057738484

bias f4 [200]
00000000: a4ae 6f3d 5029 dabc d021 673c 1ea3 07bd
00000010: 728f 37bc c8b2 753c ff37 b53c b755 87bc
00000020: 75d5 1b3d 3ab3 d23c a441 97bc 58d9 d23c
00000030: 227f 1abc 57fd 4e3c 0a47 353d 5ea5 a83c
00000040: 070b d13c ca55 ccbb 3953 713c 1581 ba3b
00000050: d938 4a3d 4a6e 97bc 6151 8b3c 3c25 aabc
00000060: dd83 2f3d 0c41 52bc 9a1c 0c3d e8df f63c
00000070: e570 06bc f68e 0b3d b114 f23a 5deb 033d
00000080: 600d cf3a 4d6e a0bc 856a cb3b eda2 59bd
00000090: 5531 4dbd c429 1abd 8b77 3d3d dfa8 27bd
000000a0: 54ef cf3c 3cf1 293d 74dd 383d 88ab 343c
000000b0: 9f95 9f3c 62d1 153d 77ea 893c 7f46 35bc
000000c0: fea9 63bd 7843 733c e31c cabc 19b8 c33b
000000d0: 8565 d6bc 20fc 53bc 132a 613b 48a1 6d3d
000000e0: 37d2 51bb 10aa 82bb 9a37 f13c 3e3a 543d
000000f0: 6630 103c 1e78 c6bc 98b5 463d 4824 e4bc
00000100: 950f 66bd 3627 ae3b d9d1 1c3d 7701 70bd
00000110: e2ba 5dbd 0af4 3638 d19e 07bd 8b9a 27bc
00000120: 31f4 6b3d 9906 463d ab69 2ebd db43 6cbb
00000130: 23dc 5e3d 3b53 06bd 60bb 803a 2819 733c
00000140: 7cf9 5a3d 2274 32bc 480c 0fbd b2a9 a73c
00000150: e8b7 fb3a 8383 033d 47f3 143d d14b 7fbc
00000160: 8aeb 36bd e060 97ba 9d75 ed3c b565 5cbd
00000170: 6a07 3e3d ebf1 e13a 414d 05bd b0cc 37bd
00000180: 389f 0a3d ee17 1d3d 4576 54bd ae5b 713d
00000190: e56e c73b 25d7 2b3c b9ec fdbc 23b6 cf3a
000001a0: 4d21 bebc 62f8 48bd aa82 17bc 802a f3ba
000001b0: ea77 60bd 94d6 513c d1ab 0e3d aece 673d
000001c0: d77f 6b3d 5724 a9bc e35f 12bd 0c68 16bd
000001d0: da4b b2bc 2c9e 093d 1061 b0bc 4c11 913c
000001e0: 30c3 053d 1e29 283d 9f63 f7bc 56c5 b4b8
000001f0: d1d8 25bd b122 27bd f4ed 5e3d 443d 813a
00000200: 09c1 28bd 2254 5a3d 8c4e 623d 307e 6abd
00000210: 6701 9fbc a681 a4bc 5eb0 623d 5a2f b93c
00000220: 61f8 89bc 6c0f eb3c 2f81 96bc 0c6a 38bc
00000230: 804f 4f3a 2f41 28bd 60d6 19bb 106b 153d
00000240: dd11 953c e292 2bbc fe91 2abd eac0 523d
00000250: baea 02bd a4f4 07bd 085f eabb 834e 713d
00000260: 1fd6 1b3c a1ea 383d 27f7 7a3c 68f0 d83c
00000270: e6af d5bc b84b 923c f3d5 6fbc 00ee 19bd
00000280: 3ebe 4dbd 808e 153c 655e 013d a863 633b
00000290: 09fb 5d3d ed6f 3bba f454 90bc 7b5d 12bd
000002a0: 354c 23bc 4e98 193d 51c0 1c3c 5728 38bd
000002b0: 4471 3f3d bd23 213d 4072 8c3a bb90 babc
000002c0: e291 07bd d7d8 5abd e0a3 2f3c c8b0 113c
000002d0: 450b 2a3c 816d 66bd 2fee 673d 4377 2e3d
000002e0: 1e37 d83b 60ac 393b 90b1 613d a88b f33c
000002f0: 540b 00bd 168d 38bc 372e ba3b 7543 b0bc
00000300: 9203 9a3c 2d25 25bd 68d5 2c3d 1453 5dbd
00000310: 70b2 273c 58af 5c3d ffb1 423d 46ba 57bd
0.05851616 -0.026631027 0.014107183 -0.033114545 -0.011203634 0.014996238 0.022121428 -0.016520364
0.038045365 0.025720228 -0.018463917 0.025738403 -0.009429725 0.012633643 0.0442572 0.020586666
0.025517954 -0.006235813 0.0147293145 0.0056916573 0.04937062 -0.018485207 0.017006578 -0.020769708
0.042850364 -0.012832891 0.034206964 0.030136064 -0.008205627 0.034071885 0.0018469301 0.03220688
0.0015796833 -0.019583846 0.0062077665 -0.053133894 -0.050095875 -0.037637487 0.046256583 -0.040932532
0.025382675 0.041489825 0.04513307 0.011027224 0.019480525 0.036576636 0.016835434 -0.011064171
-0.05558204 0.014847629 -0.024671977 0.005972874 -0.026171455 -0.012938529 0.0034357354 0.058015138
-0.0032016167 -0.003987558 0.029445458 0.051813357 0.008800602 -0.024227198 0.048513025 -0.027849331
-0.056167204 0.005314733 0.038286064 -0.058595147 -0.054133303 4.361946e-05 -0.033110444 -0.010229717
0.057605926 0.048346136 -0.04258124 -0.0036051187 0.054409157 -0.03279422 0.0009821467 0.014837541
0.053460583 -0.010891946 -0.03492382 0.02046666 0.0019204589 0.03210784 0.03636482 -0.015582041
-0.04465822 -0.0011549257 0.028986746 -0.053807933 0.04639379 0.0017238235 -0.03254438 -0.04487294
0.03384325 0.0383529 -0.051870603 0.058925323 0.0060862177 0.010488306 -0.030996667 0.0015847128
-0.023209238 -0.049065 -0.009247461 -0.0018552095 -0.05480186 0.012807507 0.034831826 0.05659359
0.057494964 -0.020647211 -0.035735976 -0.03672032 -0.021764684 0.03359811 -0.021530658 0.017708443
0.03265685 0.041054837 -0.03019887 -8.6198255e-05 -0.040489975 -0.04080457 0.05442615 0.0009860178
-0.041199718 0.05330289 0.05525069 -0.057249248 -0.019409848 -0.020081352 0.055343978 0.022605587
-0.01684207 0.028693877 -0.018372146 -0.011255752 0.000790827 -0.04107779 -0.0023473725 0.036479056
0.018196994 -0.010472031 -0.041643135 0.05145351 -0.031962134 -0.03319229 -0.007152442 0.058912765
0.0095115 0.045145635 0.015317715 0.026481822 -0.026084851 0.017858371 -0.014638412 -0.03758049
-0.050230257 0.009128213 0.031584162 0.003469685 0.054194484 -0.0007150162 -0.017618634 -0.03573368
-0.0099669 0.037498765 0.009567336 -0.044960346 0.046738878 0.039340723 0.0010715201 -0.022774091
-0.03309811 -0.05342945 0.010720223 0.008892246 0.010378663 -0.056256775 0.056623634 0.042594206
0.0065983674 0.0028331503 0.055100977 0.02972968 -0.031260803 -0.011264106 0.005681779 -0.021516541
0.01880053 -0.040318657 0.042195708 -0.054034308 0.010235414 0.05387816 0.04753303 -0.05266788

weight f4 [100, 200]
00000000: 9076 753c c60c 813b 9da6 2abc d6e4 b1ba
00000010: f887 3c3c 1b71 8e3c d809 9f3c efab 0cbc
00000020: 4753 edbb ae74 22bc 84b4 9e3b a4fe 243c
00000030: a59d 573a d910 813b 7b4c acbc b063 41bc
00000040: 8dc3 02bc 0a18 7c3c 4cc4 593c 809d 2bbc
00000050: 21c1 e93a 36d8 ed3a 8e4a a3bc 5c92 9b3a
00000060: fb7b 963b a4f1 003d fbf0 fabb 6bd8 6e3c
00000070: 22e6 82bc 5be2 ee3b 9374 fbbb 4188 80ba
00000080: 0047 ce3b 26c6 c93a ecd5 82bc 6b41 a83c
00000090: da61 6a3c 2304 573c 37fc b03b a46b 3dbb
000000a0: 9093 56bc 3148 823c e219 0cbc 334e 1dbc
000000b0: ab36 8fbc 0df8 b6bb 04e0 0c3d a5bf a83b
000000c0: 25ca e43a 9696 2abc cbae 1abc d6aa 92bc
000000d0: b682 84bb d34d 48bc 8a6a 3bbc f889 92bb
000000e0: 46ef 113c e9c7 103b 98c1 63bc 45a9 433c
000000f0: 54c4 b2bb c0d3 0d3b 81bf 82bc 4ab6 a1bc
00000100: e3fa 92bb 9396 353c f18a ee3b 81dc 8bbc
00000110: 8b73 773b 4905 dd3a 3f67 60bc c59f 1dbb
00000120: ab28 c13b 9ff7 17bc d9cf 2a3b f5ee b2bc
00000130: 4295 66ba e78e cb3b ca7d 823c 2bd6 cd3b
00000140: 0da3 2bbc e5eb bebb 9eae 30bb 5535 bfba
00000150: 6668 623c e529 483c a928 663c 0322 b4bb
00000160: a9d0 d03b 0fe5 483c da65 7dbc 9015 bd3b
00000170: 3cb9 543b a121 f43b 9c16 ab3c b7e6 dfbc
00000180: 877b 1bba df0f ee3b 89e7 6c3c 0f81 3cbc
00000190: 86db ac3a c9af d4bb 4f74 0a3c 0d18 1abc
000001a0: 6d8b 50bc 7899 ffbb 3c5f 9fbb 66cb 1c3c
000001b0: 383c 163b 5da2 40bc 26b3 173c 9e81 bcbb
000001c0: e8da 333c f24a 77bc 4944 c9b9 0923 1ab9
000001d0: e7d3 093c ab08 56bb 2608 293c 416f 1abc
000001e0: 1b39 e13b 7bb3 423c 4e1e 283c 2df2 0ebc
000001f0: 7981 093a af28 08bb 1343 9b3b 812a 3abc
00000200: e4eb d43c 566a dbba edbc 8dbb ef5b fc3b
00000210: 12f0 f33a 796a 113c 9bab 9db9 8bae 353c
00000220: d6b1 52bb 00c2 3cbc 4baf f5bb 3584 1abc
00000230: 7948 143c 1afc 033c 1d98 2f3c 3df1 803c
00000240: ec66 783c e8fe 7d3b 372f 8c3b 66bb d7ba
00000250: 53f9 c93b 4a21 d3bb 214a ed3b 9eed 2a3c
00000260: b9cc 76bc 8e32 383c 0808 0b3c a006 fd3b
00000270: cade bf3b 5d6f e9bb fb55 9cbc 7e7b e63b
00000280: 4509 cbb8 049c 9b3b 650f 273c e534 65bc
00000290: 190d c939 b688 eb3b 65eb 59bb 3a71 6e3b
000002a0: 87a0 f23b 65a9 fcbb 283b ff3b 7ba8 6abb
000002b0: 0d67 33bb 8c86 85bc 6fbd e0bb 9077 453b
000002c0: 46db 11bc ebca 503a 6d94 393c ad68 073c
000002d0: 4973 d83a 71f6 093c 5c1d fa3a bfaf 8f3b
000002e0: dd44 8fbc 653e d7bc 8edb c33b 59f8 393c
000002f0: 7539 8cb9 ce72 d7bb 442e 5ebb 964d b5ba
00000300: fee3 ab3a d000 5a3b 22f2 1ebc ece4 cebb
00000310: 0382 873c 618b b0bc c2f0 44bc 1dc7 c23b
00000320: d24f 3b3c 2637 413c 8e49 333c cfb2 0a3c
00000330: c654 07bc 57e3 d23a a519 96bc 2243 6b3b
00000340: dd65 82bb ef36 e73c a71d 89ba 7393 ac3b
00000350: 3ffc 343c 0706 553c 035f b3bb 57d5 88ba
00000360: 4a79 ba3b d60b 76ba 0e8b c9bb f360 3d3c
00000370: 8e77 8f3b cc8a 98bc 164d c03b 9e7f a0bc
00000380: 439c b33a 228a ed38 e94c 193b 6e68 13bc
00000390: 318b 9aba 106d c93a 3db4 ef3b a81e eaba
000003a0: f079 8f3c c1be 14bc 6a83 aebb 0f87 30bc
000003b0: 4318 f13b 8568 f73b 4e56 9a3b 73c1 173c
000003c0: 135f a6bb 148a c6ba 5516 c23b fd38 aa3b
000003d0: 7661 be3c c0a9 903b 7cb7 4a3a ec5b eb3b
000003e0: a8ea 31bb 1d08 b63c dc95 0abc 1da2 f03a
000003f0: e06b 4abb f3cd 3ebc ac58 07bb 1475 c5bb
0.014981881 0.0039382903 -0.0104157 -0.0013572227 0.011507027 0.017387917 0.019413874 -0.008585914
-0.0072425934 -0.009915514 0.0048432965 0.010070477 0.000822509 0.003938776 -0.021032562 -0.0118035525
-0.007981193 0.015386591 0.01329143 -0.010474563 0.0017834046 0.0018146101 -0.019933011 0.001186918
0.0045924163 0.031480446 -0.0076581216 0.014577965 -0.015978877 0.0072901673 -0.007673809 -0.0009806232
0.006295085 0.0015394136 -0.015971147 0.020539006 0.014305556 0.013123545 0.00540116 -0.002890327
-0.013096705 0.015903564 -0.008551093 -0.009601164 -0.017482122 -0.005583769 0.034393325 0.005149799
0.0017455263 -0.010411879 -0.009441088 -0.017903727 -0.0040439023 -0.012225586 -0.011438975 -0.0044720136
0.008907145 0.0022091812 -0.013901137 0.0119422125 -0.005455533 0.0021641105 -0.015960457 -0.019740243
-0.0044854744 0.011083263 0.0072797467 -0.017072918 0.0037758078 0.0016862537 -0.013696491 -0.002405153
0.0058947406 -0.009275346 0.0026063828 -0.02184246 -0.0008796045 0.0062121036 0.015929122 0.0062816343
-0.010475886 -0.0058264607 -0.0026959549 -0.0014588038 0.013818836 0.01221702 0.01404778 -0.0054972186
0.0063725305 0.012261643 -0.015466178 0.0057703927 0.003245904 0.007450298 0.020884804 -0.027331693
-0.0005931188 0.0072650756 0.014459499 -0.011505379 0.0013187982 -0.006490682 0.008450582 -0.009405148
-0.012728554 -0.0078002773 -0.0048636477 0.009569978 0.0022924077 -0.01175746 0.009259021 -0.0057527563
0.010977484 -0.015093552 -0.00038388584 -0.00014699636 0.008412338 -0.0032658975 0.010316884 -0.009425939
0.0068732626 0.011883612 0.010261131 -0.008724731 0.0005245428 -0.0020776202 0.0047382205 -0.011362673
0.025991388 -0.0016740065 -0.0043255 0.007701389 0.0018610975 0.008875483 -0.0003007323 0.011088978
-0.0032149456 -0.011520863 -0.007497703 -0.009430935 0.009050482 0.008055711 0.010717419 0.015740031
0.015161257 0.0038756672 0.0042780894 -0.0016459047 0.006163755 -0.0064431773 0.007241503 0.010432629
-0.015063458 0.011242522 0.0084858015 0.007721737 0.005855416 -0.0071238712 -0.019083967 0.0070337644
-9.681521e-05 0.004748823 0.010196541 -0.013989662 0.00038347466 0.007187928 -0.0033251878 0.0036383406
0.0074043903 -0.007710623 0.0077890344 -0.0035805989 -0.0027374655 -0.016299509 -0.0068585197 0.003013108
-0.0089023765 0.00079648074 0.011326891 0.008264703 0.001651385 0.008420573 0.0019082236 0.0043849642
-0.017488891 -0.02627487 0.0059771007 0.011350715 -0.0002674569 -0.006574965 -0.0033902088 -0.0013832327
0.0013114212 0.0033264644 -0.009701284 -0.0063139107 0.016541487 -0.021550836 -0.012020292 0.0059441463
0.011432605 0.011792934 0.01094283 0.008465483 -0.008259958 0.0016089481 -0.018322775 0.0035898169
-0.003979428 0.028224437 -0.0010461108 0.0052666008 0.011046468 0.013001925 -0.0054739728 -0.0010439557
0.0056907283 -0.0009385919 -0.00615061 0.011558759 0.0043782657 -0.018620871 0.0058685644 -0.019592103
0.0013703186 0.0001132677 0.002339179 -0.008997066 -0.001179075 0.0015367586 0.0073151872 -0.001786192
0.017514199 -0.009078682 -0.0053257244 -0.010774388 0.0073576286 0.0075503015 0.0047099954 0.0092624305
-0.0050772517 -0.0015147352 0.0059230723 0.005194782 0.023239832 0.004414767 0.000773303 0.007182589
-0.0027147923 0.022220666 -0.008458581 0.001835886 -0.0030887052 -0.011645782 -0.0020652218 -0.0060259197

bias f4 [100]
00000000: 6c2f cb3c 2e85 69bd b977 90bd b6bc 623d
00000010: c86e 8e3d 43a3 c63d 072c f83b db24 41bd
00000020: 914b a63d dd6b edbb a7a0 483d 349b 05bc
00000030: 5552 09bd 0b91 883b c4e7 fb3c 5a3d 443d
00000040: aad0 0d3d 5f7b 843d c593 4d3d c188 0a3d
00000050: 04a5 98bd c6c0 b63d 3713 56bd a486 b7bd
00000060: dffd 96bd 3b66 e5bc 1740 553d 442b b4bd
00000070: 975a 193d 182c 41bd a8dc 983c 07ed eebb
00000080: daf2 4abd be6e 65bc 2cdb 8a3d ea4e 803c
00000090: 0e83 07bd f23a 6b3b 1901 da3d 8fff a73d
000000a0: 37eb febc 334d 70bd 054a a43d a866 143c
000000b0: ad3e 64bd abb1 20bc b017 86bc b661 eabc
000000c0: ff0f cd3d 2686 0c3a 9988 d6bc f0b8 a4bc
000000d0: bd3d c23b b335 c33d d93a 723c 2218 cfbc
000000e0: dd21 a03d b17c 533d 53e4 67bd 56c2 773d
000000f0: b41c 7dbd 4cfa 553b 26a6 b93d 56ac 2ebd
00000100: 57d1 0fbb d54f 073c 95d1 92bd 243f 853d
00000110: 895d 053d 60d5 44bc aed5 a73c f48a 51bd
00000120: 6928 7fbd 6419 08bd 30fd 8ebc ee32 38bd
00000130: 5baf 343d 763e a13c 35df f63c 5e7d 5c3d
00000140: 3b32 813b d525 a33c 50be 17bd eb29 b3bc
00000150: 5277 72bd c117 91bc b294 613c 63c2 f43c
00000160: df0e dabc 53ce 5d3c 92e1 833c caa1 a3bd
00000170: 7981 143d 7b0b 51bd 11bc 2b3d d588 86bd
00000180: db3f 8d3c c4bf c4bc 0a7c 78bd edef 8cbd
0.024802886 -0.057011776 -0.07054085 0.05535575 0.069547236 0.096991085 0.007573608 -0.04715429
0.08119882 -0.0072455243 0.048981335 -0.008154679 -0.033525784 0.004167681 0.030750163 0.047910072
0.034622826 0.06468844 0.050189752 0.033821825 -0.07453349 0.08923487 -0.05226442 -0.089612275
-0.07372641 -0.028002849 0.052063074 -0.08797315 0.03743991 -0.04716119 0.018659905 -0.0072914395
-0.049548008 -0.014003454 0.06780085 0.01566263 -0.033083968 0.0035893288 0.106447406 0.08203041
-0.031118019 -0.058667373 0.080219306 0.009057678 -0.055723835 -0.009807984 -0.016368717 -0.028611045
0.10012817 0.0005360566 -0.026188182 -0.020107716 0.00592777 0.09531727 0.014784538 -0.025280062
0.07818959 0.051632587 -0.05661423 0.060488068 -0.06179495 0.003265041 0.090648934 -0.04264482
-0.0021944845 0.0082587795 -0.07168881 0.06506184 0.032559905 -0.012013763 0.020487633 -0.051157907
-0.062294398 -0.03322734 -0.017454714 -0.044970445 0.044112545 0.019683104 0.03013573 0.053830497
0.0039427555 0.0199155 -0.03704673 -0.021870574 -0.059195824 -0.017711522 0.013768362 0.029877847
-0.02661842 0.013537961 0.016098771 -0.07989843 0.036256287 -0.05103634 0.0419274 -0.065690674
0.017242363 -0.024017222 -0.060665168 -0.068817

weight f4 [2, 100]
00000000: 3e4a dabb af71 14bc 39b1 9dbd 84c5 1e3d
00000010: 3815 833c e744 9b3d f12c cebb 2041 5cbb
00000020: 8668 183d 558a f23b fcf1 ff3a 85d5 943b
00000030: f622 b8ba 4120 383d bd14 893c 75ce 963c
00000040: 0641 823b 8d95 913c 521f 973d 8878 4c3d
00000050: f5ef 9b3b 9996 8e3d a8f2 afbb d11f 1fbc
00000060: f116 52bc 690f 7ebd 6c8e 0fbc b480 0fbe
00000070: e19c 833c a8fe 98ba a615 49bc f3db 153c
00000080: 6186 95ba fae0 5eb9 77b9 243d b39d 283d
00000090: 6f18 1fbc 9a23 113b e436 013e 7720 cf3d
000000a0: 5b86 433b c337 17bb aff7 9b3d 1a5e 45bc
000000b0: 2b15 1bbc 8e3c d53a 9383 dcbb 3d98 35bc
000000c0: c2b9 f53d 0c7c 89bc 7229 2bbc 2f92 34bd
000000d0: 2f5b 963b 3f48 ca39 39a9 e3bc 1b2a 873d
000000e0: ae4f aa3d 0a2a 8e3d 50a6 363b d098 a93d
000000f0: 5d8b 93bb a28d 71bd c5e0 8a3d a6f8 d7bc
00000100: 7c0e bdbb 5cac 293c 06ca e5bb 8c54 fa3b
00000110: 1f30 e73b a520 e13b f1e9 1fbc 6efc 7139
00000120: f451 b0bb 83fe 543c a623 85b8 ea0e 3ebc
00000130: b751 babb 9d7c a6bb 15e1 80bc 93cc 14bc
00000140: ea41 6f39 3fe2 483b ec15 1cbc 02e5 dab9
00000150: 677c 37bd fbef 923c 063a 0cbc 19f3 073c
00000160: 9c4f ba3b 5987 993c 3cbe 863c aa8f 18bc
00000170: 7266 993d a32f fb39 ab8f bc3b 4af8 36bb
00000180: a959 283b c968 373c 7f1d 67bb eba2 143b
00000190: f409 ddbb e457 39bc b40d 6b3d 0ba8 3abd
000001a0: 761d 88bd d964 f6bc e9b5 08bd 43d6 403d
000001b0: 1743 d2bc a1e2 9f3c 315b 083e 4518 e53d
000001c0: 0b49 0cbe 3e3f af3c bdf6 83bc 6cb1 eaba
000001d0: 27ae 13bd b27c 8cbd dd6f 883c 06c7 393d
000001e0: bf81 a33d 909f 2bbb b957 023d 4502 11be
000001f0: 4354 1d3d 0862 f23c 7d50 ebbd 3092 993d
00000200: 9268 57bd 331f 653d 5405 7abd 8166 db3c
00000210: d00e 453c 67c0 9cbd bde5 b4bc 58ca 16bb
00000220: 8652 b1bd ec8a fb3d a1b4 2c3c 4c71 893c
00000230: fdb5 683c 73d7 fdb8 cdcb 5e3b a6fe 58bd
00000240: 37e5 ffbc 0d0b 0abc d32f 873c f1e7 2abb
00000250: 922b c33c d3c8 33bc 83fa 1dbd 96cb 813c
00000260: 745e 003d d57a 2fbe 694f dbbc 2082 e63d
00000270: 578f 753d 43d9 0e3d 3f21 a2ba 086c 313b
00000280: 3928 cc3b 354c b53c f0d9 82bc 5689 54bd
00000290: 423f ad3d aaed 173e 43e1 05bc 9ced 173d
000002a0: 0a06 fbbd 2793 0c3e 7900 12bc cf92 553e
000002b0: 63f6 cf3b e8b2 d33c 6503 75bb 7722 b33c
000002c0: f745 e43b 963a 423d d522 bcbc 04f6 88bd
000002d0: 63fb 21bd 8880 2a3c f9f3 cc3b ccf7 0c3d
000002e0: 18dc 443d de86 293d e6f6 c73b 881e 1dbd
000002f0: a797 27bc 666c 6bbb 9708 e03c a860 233e
00000300: 816c 763d 0813 e63d e71e 6e3d 9582 463e
00000310: 2ce2 433c dcce 4f3d d528 9cbc 577f f83d
-0.0066616824 -0.009060307 -0.07699818 0.038762584 0.016001329 0.075815015 -0.0062919785 -0.0033608153
0.037209056 0.0074017444 0.0019527073 0.004542055 -0.0014048505 0.044952635 0.016733522 0.018408993
0.0039750366 0.017771507 0.07379021 0.049919635 0.0047588297 0.06962318 -0.005369503 -0.0097121755
-0.0128228525 -0.062026415 -0.008761983 -0.1401394 0.016066017 -0.0011672573 -0.012273228 0.009146678
-0.0011407846 -0.0002125538 0.040215936 0.04116602 -0.009710415 0.0022146464 0.12618595 0.10113614
0.002983472 -0.0023074008 0.07615601 -0.012046361 -0.009465496 0.0016268657 -0.006729552 -0.01108366
0.11998321 -0.016782783 -0.010446893 -0.044084724 0.0045885067 0.0003858227 -0.027790653 0.06599828
0.08315979 0.06941612 0.0027870126 0.082811 -0.0045026974 -0.058972962 0.06781153 -0.026363682
-0.005769549 0.010356035 -0.0070126085 0.0076394733 0.007055297 0.0068703466 -0.009760366 0.00023077588
-0.0053808633 0.013000133 -6.348574e-05 -0.0116002355 -0.0056860107 -0.005080773 -0.015732327 -0.009081977
0.00022817371 0.0030652431 -0.009526711 -0.00041750824 -0.044796374 0.017936697 -0.008558756 0.008297705
0.0056857597 0.018741297 0.016448133 -0.009311596 0.07490243 0.00047909943 0.0057544312 -0.0027918988
0.0025688207 0.011194416 -0.0035265384 0.0022680114 -0.0067455713 -0.011312459 0.057386115 -0.045570415
-0.06646244 -0.030077385 -0.033376608 0.047079336 -0.025666757 0.019517245 0.13316037 0.1118627
-0.13699739 0.02139246 -0.016108865 -0.0017905659 -0.036054756 -0.06859721 0.016654903 0.04535582
0.079837315 -0.0026187636 0.03182194 -0.14161022 0.038410436 0.02958776 -0.11489961 0.07498586
-0.05258996 0.055937957 -0.061040238 0.026782276 0.012027457 -0.07653885 -0.022082204 -0.002300879
-0.08658318 0.122823566 0.010541112 0.016777657 0.014203546 -0.00012104111 0.0033995986 -0.052977227
-0.031237228 -0.008425486 0.016502297 -0.002607819 0.023824487 -0.010973173 -0.038568985 0.015844148
0.031340078 -0.171367 -0.026771264 0.11255288 0.059951153 0.034875166 -0.0012369527 0.0027072448
0.006230381 0.022131065 -0.015973061 -0.051888786 0.08459331 0.14836755 -0.008171382 0.037091836
-0.12257011 0.13728009 -0.0089112455 0.20856784 0.0063465103 0.025842145 -0.0037386057 0.02186702
0.0069663483 0.047419153 -0.022965828 -0.06687549 -0.03954638 0.010406621 0.0062546697 0.034416005
0.04806146 0.041388385 0.0061024306 -0.038359195 -0.010229028 -0.0035922765 0.027347846 0.1595484
0.06016207 0.11234099 0.05813494 0.1938575 0.011955779 0.050734386 -0.019062439 0.12133663

bias f4 [2]
00000000: b3f7 5c3f 6a19 c73e
0.8631546 0.38886577
