Sigmoid-MYD.pt (torch, 18911 bytes, 3 tensors)

weight f4 [32, 128]
-2.268707 -4.946256 6.650299 -0.76873326 7.8400006 28.588165 -3.306517 -37.067425
1.6836455 16.838434 -2.646418 -7.982413 -14.026935 4.4949074 13.401203 16.748442
3.4324067 2.1834753 -4.8567286 21.938396 -3.189638 2.7024472 0.3977968 4.628876
-29.140911 19.564323 -1.6642802 -6.357459 16.105076 24.455421 14.941227 26.109882
-4.179382 -5.2912893 -23.595753 44.086098 -23.953281 44.18504 11.287365 17.560415
51.590954 34.301212 28.574633 -2.1140633 0.53525805 -86.56428 -55.438156 -47.316265
60.17298 -57.19441 -28.142925 62.808403 -42.922966 47.928997 -33.53884 -30.538328
32.386932 -93.69802 18.966122 -12.238094 -143.25421 62.199474 9.6014805 80.45717
-0.9814257 8.087483 2.087106 -8.763518 -2.1053085 0.017300993 -4.169286 -3.5814047
-2.006229 -6.3755355 3.3617187 -1.1695846 -1.2577755 0.7987388 4.3344 0.5416992
0.2036107 -0.15216689 -8.548121 -2.2528887 -3.5242052 -4.8729854 -2.7467508 2.0242152
-3.9879875 10.5389385 0.7650352 -5.6464524 4.796595 -4.908436 -8.831025 -0.47431564
-2.724504 2.2489212 1.1278826 -9.83229 13.951913 1.6721816 -3.0398526 0.8960063
5.8286533 -0.9303017 5.9626927 2.1335866 11.980994 -5.5406847 -7.9119544 -4.492718
16.832047 7.154951 -7.095245 -13.676096 6.2209725 9.244907 -3.4193828 1.3843174
-6.464068 -10.735517 -1.9709746 -0.17532419 -14.698035 18.776428 6.170371 7.4240155
2.0526655 0.95597684 9.152493 21.553879 45.88205 8.346774 13.892812 -14.640885
19.148071 1.192911 0.7120148 2.143227 13.306821 -20.028625 -13.76719 -26.64943
8.89522 -7.8203588 -7.9534936 18.209375 -2.5658135 1.8173102 0.6947215 23.762468
-0.09584175 23.555305 9.471704 18.134436 9.755553 10.804357 4.6405253 -8.532829
-4.8276443 -11.531866 22.692087 5.2439857 21.66157 -39.790844 15.093965 -11.47863
-30.831638 -2.0634766 -9.818189 -18.94685 33.94444 11.759043 -103.05693 12.681982
93.57385 17.942686 22.905085 9.862026 8.620279 8.0836735 81.576225 -3.3142748
-43.43221 -6.942906 9.308897 -0.11623781 -16.914171 -41.200375 -47.454212 -37.82165
-7.7312403 4.3613534 7.103318 -7.604949 -3.6563087 -3.7515163 -0.7024464 7.083723
3.2768834 0.9350797 4.6341724 2.874081 -0.53092027 -3.5024476 3.4003644 2.6245592
-4.134201 -6.069294 5.608332 0.6126063 7.612262 0.21764861 5.0006866 -1.9206297
-0.39821717 0.03914929 -0.6594673 -4.4433002 -4.6459994 -4.4358253 0.9408172 2.299371
2.228875 -6.525701 7.8535595 -3.9103868 0.46450394 -5.464861 4.0584226 -2.504108
-5.9717846 -7.568014 -5.4146776 4.0543685 3.553674 -10.246424 -0.31781182 -5.633252
-0.9681171 1.3485451 4.227648 6.6623354 0.934588 1.9889656 8.250875 0.14951068
-3.2453945 7.9119754 -4.7113667 3.7159927 -15.549106 -2.4418485 -6.683226 -3.6568289
00000000: 7f32 11c0 bb47 9ec0 40cf d440 b4cb 44bf
00000010: 49e1 fa40 90b4 e441 f99d 53c0 0b45 14c2
00000020: b281 d73f 1db5 8641 ea5e 29c0 ed6f ffc0
00000030: 536e 60c1 48d6 8f40 546b 5641 cffc 8541
00000040: 8dac 5b40 0fbe 0b40 526a 9bc0 d681 af41
00000050: 0723 4cc0 e5f4 2c40 06ac cb3e c11f 9440
00000060: 9620 e9c1 bc83 9c41 2207 d5bf 4e70 cbc0
00000070: 32d7 8041 b4a4 c341 440f 6f41 0ae1 d041
00000080: 7fbd 85c0 3e52 a9c0 1ac4 bcc1 2a58 3042
00000090: 52a0 bfc1 7bbd 3042 0c99 3441 bb7b 8c41
000000a0: 235d 4e42 7134 0942 d998 e441 d04c 07c0
000000b0: ac06 093f e920 adc2 acc0 5dc2 db43 3dc2
000000c0: 22b1 7042 13c7 64c2 b624 e1c1 ce3b 7b42
000000d0: 1eb1 2bc2 4bb7 3f42 c627 06c2 7f4e f4c1
000000e0: 388c 0142 6365 bbc2 9eba 9741 3ccf 43c1
000000f0: 1441 0fc3 43cc 7842 aa9f 1941 12ea a042
00000100: b73e 7bbf 5566 0141 2593 0540 5f37 0cc1
00000110: 60bd 06c0 d0ba 8d3c ca6a 85c0 bc35 65c0
00000120: 0e66 00c0 6304 ccc0 6626 5740 f3b4 95bf
00000130: cafe a0bf 257a 4c3f 68b3 8a40 ccac 0a3f
00000140: 537f 503e a3d1 1bbe 1bc5 08c1 542f 10c0
00000150: 948c 61c0 7fef 9bc0 c4ca 2fc0 be8c 0140
00000160: 303b 7fc0 7e9f 2841 59d9 433f bdaf b4c0
00000170: b57d 9940 e811 9dc0 e14b 0dc1 80d9 f2be
00000180: 465e 2ec0 53ee 0f40 755e 903f 0f51 1dc1
00000190: 093b 5f41 0c0a d63f f28c 42c0 ab60 653f
000001a0: 5484 ba40 4128 6ebf 61ce be40 af8c 0840
000001b0: 27b2 3f41 4a4d b1c0 bb2e fdc0 59c4 8fc0
000001c0: 08a8 8641 5cf5 e440 3f0c e3c0 4ad1 5ac1
000001d0: 3512 c740 24eb 1341 2bd7 5ac0 5031 b13f
000001e0: a5d9 cec0 adc4 2bc1 e548 fcbf 2f88 33be
000001f0: 272b 6bc1 2036 9641 ae73 c540 8991 ed40
00000200: df5e 0340 e6ba 743f 9c70 1241 586e ac41
00000210: 3887 3742 638c 0541 f548 5e41 1141 6ac1
00000220: 402f 9941 4fb1 983f 9a46 363f a22a 0940
00000230: bde8 5441 a03a a0c1 6946 5cc1 0832 d5c1
00000240: d252 0e41 6140 fac0 0583 fec0 cdac 9141
00000250: 4a36 24c0 9f9d e83f 45d9 313f 8919 be41
00000260: ae48 c4bd 4471 bc41 198c 1741 5313 9141
00000270: bf16 1c41 a5de 2c41 2f7f 9440 7886 08c1
00000280: 107c 9ac0 8682 38c1 6589 b541 bbce a740
00000290: e54a ad41 d329 1fc2 e180 7141 78a8 37c1
000002a0: 32a7 f6c1 0010 04c0 4d17 1dc1 2693 97c1
000002b0: 1bc7 0742 0a25 3c41 261d cec2 66e9 4a41
000002c0: d025 bb42 9f8a 8f41 9d3d b741 dcca 1d41
000002d0: aaec 0941 ba56 0141 0727 a342 141d 54c0
000002e0: 95ba 2dc2 492c dec0 3ef1 1441 170e eebd
000002f0: 3950 87c1 2fcd 24c2 1dd1 3dc2 5f49 17c2
00000300: 5266 f7c0 3590 8b40 624e e340 be5b f3c0
00000310: f600 6ac0 d818 70c0 87d3 33bf dcad e240
00000320: 75b8 5140 6261 6f3f 244b 9440 f1f0 3740
00000330: 64ea 07bf 1a28 60c0 929f 5940 c7f8 2740
00000340: 604b 84c0 a837 c2c0 7577 b340 c4d3 1c3f
00000350: a697 f340 47df 5e3e a005 a040 32d7 f5bf
00000360: 1fe3 cbbe 025b 203d d9d2 28bf 842f 8ec0
00000370: 07ac 94c0 48f2 8dc0 65d9 703f e528 1340
00000380: e3a5 0e40 8bd2 d0c0 5c50 fb40 c743 7ac0
00000390: 76d3 ed3e 24e0 aec0 99de 8140 4e43 20c0
000003a0: dc18 bfc0 2c2d f2c0 0a45 adc0 63bd 8140
000003b0: 656f 6340 5af1 23c1 3bb8 a2be 9a43 b4c0
000003c0: 86d6 77bf 209d ac3f e448 8740 da31 d540
000003d0: 2941 6f3f 6d96 fe3f 9603 0441 5419 193e
000003e0: 8bb4 4fc0 e72e fd40 84c3 96c0 d3d2 6d40
000003f0: 23c9 78c1 3f47 1cc0 fddc d5c0 7c09 6ac0

bias f4 [32]
-5.2529125 0.83504665 18.95699 -1.2013446 4.6473064 8.665745 1.5775833 2.4168818
7.316616 6.351839 3.2368007 4.443958 -6.306394 5.0244274 6.078577 10.068699
-0.34437224 -6.225848 6.590206 16.227028 2.7735794 -2.9063313 14.632257 -6.5112357
5.6071653 16.33859 9.711247 13.852807 -19.961575 11.743779 9.883491 -0.79968137
00000000: dc17 a8c0 9ec5 553f eaa7 9741 a9c5 99bf
00000010: bcb6 9440 e4a6 0a41 40ee c93f 31ae 1a40
00000020: b821 ea40 4442 cb40 be27 4f40 e734 8e40
00000030: fbcd c9c0 1cc8 a040 b483 c240 6419 2141
00000040: 8f51 b0be 263a c7c0 f8e2 d240 f4d0 8141
00000050: 5382 3140 5501 3ac0 ba1d 6a41 0b5c d0c0
00000060: e66d b340 6fb5 8241 4561 1b41 19a5 5d41
00000070: 4eb1 9fc1 85e6 3b41 c722 1e41 ebb7 4cbf

weight f4 [1, 32]
0.5967324 -1.0473644 0.80818266 1.0616795 0.7213651 0.9881597 0.71433634 0.6743528
0.92422384 -0.74281365 -0.95608085 -1.1050014 1.1667058 -1.0535657 0.8899393 0.93934757
0.81818795 0.5718475 -1.2071176 1.0779096 1.3392569 1.0716095 0.8873706 -0.5683345
-1.4178952 0.7332001 1.5816408 1.1010082 -0.9946619 1.1347369 -1.0120434 0.7217239
00000000: 74c3 183f 0910 86bf 0fe5 4e3f 1de5 873f
00000010: 62ab 383f 09f8 7c3f bfde 363f 63a2 2c3f
00000020: ef99 6c3f 0929 3ebf b7c1 74bf b070 8dbf
00000030: 9e56 953f 3edb 86bf 10d3 633f 1579 703f
00000040: c474 513f 9964 123f d482 9abf f1f8 893f
00000050: c56c ab3f 802a 893f b82a 633f 5f7e 11bf
00000060: 977d b5bf 00b3 3b3f 3573 ca3f d6ed 8c3f
00000070: 2aa2 7ebf 0f3f 913f a38a 81bf e6c2 383f
