API/Sigmoid-200.pt (torch, 18911 bytes, 3 tensors)

weight f4 [32, 128]
0	0x41fc3bf5	31.529276
1	0xbf5857ae	-0.8450879
2	0xc052a728	-3.2914524
3	0x40ae6544	5.4498615
4	0xc187a3d0	-16.954987
5	0x411d29c3	9.822696
6	0xc1415127	-12.082313
7	0xc1cbdde9	-25.483355
8	0x41a696c1	20.82361
9	0x40c52a3a	6.1614046
10	0x41373581	11.4505625
11	0x4020b8d3	2.5112808
12	0xbf82d049	-1.0219814
13	0x3f161cdf	0.58637804
14	0xc197d4dd	-18.978937
15	0x4130a30a	11.039804
16	0xbf06ac38	-0.52606535
17	0xbea94049	-0.33056858
18	0x412db8bd	10.857602
19	0xc1c407ac	-24.503746
20	0xc10b73ae	-8.715742
21	0x42052283	33.283703
22	0x42020e77	32.514126
23	0xc202bf8f	-32.68707
24	0xc17fc1ba	-15.984797
25	0x427a6169	62.595127
26	0x3ead40cc	0.338385
27	0x4233916c	44.892014
28	0x419db5bf	19.713743
29	0x427439e1	61.056522
30	0x41812c0f	16.146513
31	0xc250daaa	-52.21354
32	0x42e4ef75	114.46769
33	0xc0a8c8cf	-5.274513
34	0xc1839a19	-16.450243
35	0xc19efc06	-19.873058
36	0x415a8657	13.657798
37	0xc1eb4a66	-29.411327
38	0x4172d8ee	15.177961
39	0x4233fcdb	44.99693
40	0x417b61c3	15.711368
41	0x41608493	14.032367
42	0x41947f0b	18.562033
43	0xc214b827	-37.179836
44	0xc2682d3d	-58.044178
45	0xc2a6ba78	-83.3642
46	0x41ae2452	21.767735
47	0xc2af9dfe	-87.80858
48	0x414df74e	12.872877
49	0xc11a4b86	-9.643438
50	0xc2763a4a	-61.556923
51	0x41187eb5	9.530934
52	0x413546c2	11.329775
53	0xc20fe92e	-35.977715
54	0x4248c5f1	50.193302
55	0x42eb03ea	117.507645
56	0xc3001fd9	-128.1244
57	0xc191b213	-18.21195
58	0x429a75cd	77.23008
59	0xc0072d36	-2.1121345
60	0x4371cbac	241.7956
61	0x4313c897	147.78355
62	0xc2928bc2	-73.272964
63	0xc1fc434e	-31.532864
64	0x408bca6a	4.3684587
65	0x40189e95	2.384679
66	0xc1a450e5	-20.5395
67	0x40bde637	5.9343524
68	0x40003c1e	2.0036693
69	0xc114bf11	-9.296647
70	0xc03a7e76	-2.9139686
71	0x40badb30	5.8392563
72	0xbf3a989a	-0.728891
73	0x40c15031	6.041039
74	0x40a2cbc3	5.0873733
75	0x408c10e9	4.377064
76	0x40ab4fca	5.35349
77	0x3fb426dd	1.407436
78	0x40d89c04	6.769045
79	0x411aa4a9	9.6652
80	0x418710e1	16.883242
81	0xc19829ec	-19.02047
82	0xc0ae1516	-5.440074
83	0x409bb27c	4.8655376
84	0x412706f4	10.439198
85	0x417a5570	15.645859
86	0xc0be346c	-5.943899
87	0xc0fe0a1d	-7.9387345
88	0x412de614	10.868671
89	0x41e3187d	28.386957
90	0x41cec45f	25.845884
91	0x411a0cb2	9.628099
92	0x4110ffd9	9.062463
93	0x41e282ec	28.313927
94	0x40539297	3.3058221
95	0xc0ab2b09	-5.3490033
96	0xc105ac25	-8.354527
97	0xc1ff1a18	-31.887741
98	0x4182bc70	16.34201
99	0x4058916d	3.383876
100	0xc1bae117	-23.359907
101	0xc1a65818	-20.793015
102	0x41ca157d	25.260492
103	0xc2426adf	-48.604366
104	0x402499fa	2.571898
105	0x41e10f3e	28.132442
106	0xc1dc63a7	-27.548658
107	0x4059730f	3.3976476
108	0x4233bde8	44.935455
109	0xc1b2800f	-22.312529
110	0xc10aa852	-8.666094
111	0x40e4c69f	7.1492457
112	0x421f5e19	39.841892
113	0xc1b39454	-22.447426
114	0x41610e81	14.066041
115	0xc1cf2102	-25.891117
116	0x42979645	75.793495
117	0x410307c0	8.189392
118	0xc1ff1e7b	-31.889883
119	0x423ac91f	46.696407
120	0xc1eb367e	-29.401608
121	0x41d0e5b3	26.112158
122	0x4104d3c7	8.301703
123	0x420d46fb	35.319317
124	0x4122125c	10.129482
125	0xc2b6e5a7	-91.44854
126	0xc289a14d	-68.81504
127	0xc1e6996e	-28.824917
128	0x422a9366	42.643944
129	0x4133bc14	11.2334175
130	0x400eb422	2.2297444
131	0x3fae7d2f	1.3631953
132	0x41f5f45a	30.744312
133	0xc17df326	-15.871862
134	0xc0cba8f2	-6.364373
135	0xc2024977	-32.571743
136	0x412f3cef	10.952376
137	0x41ce4242	25.782352
138	0x41818a42	16.192509
139	0xc02c3657	-2.6908166
140	0xc21c74ac	-39.113937
141	0xc2361ef2	-45.53022
142	0x417b7e85	15.718389
143	0xc0a57e20	-5.171646
144	0xc1ce0831	-25.754
145	0xbea06679	-0.3132818
146	0x413ef9a3	11.935946
147	0xc1d07c8a	-26.06081
148	0xc247c881	-49.945805
149	0x41e5d89b	28.730764
150	0x41a92377	21.142317
151	0xc0f45761	-7.6356664
152	0x4195cedc	18.726006
153	0xc1dea8b7	-27.83238
154	0xc219ab0e	-38.417046
155	0x4294f4f1	74.4784
156	0x425850f3	54.079052
157	0x40fd8b73	7.9232726
158	0xc0c22191	-6.0665975
159	0x427621dc	61.533066
160	0x41708d13	15.034442
161	0x42933cd7	73.61883
162	0x411c4c64	9.76865
163	0xc211fa0f	-36.494198
164	0x415bc5c9	13.735787
165	0x42790b4d	62.261036
166	0xc10e96c7	-8.911811
167	0x3f9d6f93	1.2299675
168	0xc2011721	-32.272587
169	0x424aecb7	50.731167
170	0x42a6ffc9	83.49958
171	0x3ff17581	1.8863984
172	0xc16b16e9	-14.693093
173	0x41653100	14.324463
174	0x42166996	37.60311
175	0xc2a5cb30	-82.89685
176	0xc2a4d067	-82.407036
177	0xc2505b52	-52.08918
178	0xc232dfeb	-44.71867
179	0x42911e38	72.55902
180	0x4301cb62	129.79446
181	0x430bc19c	139.75629
182	0xc2698203	-58.376965
183	0x430489f8	132.53894
184	0x416da62c	14.853069
185	0x42f38fa4	121.78055
186	0x42b7a30e	91.81847
187	0xc22f5f7e	-43.843254
188	0xc25ff22c	-55.986496
189	0xc1fb8ddd	-31.44427
190	0x42d2a2c1	105.31788
191	0x40cb3921	6.3507237
192	0x406568ba	3.584517
193	0xc0bbaa29	-5.8645215
194	0x408223ef	4.0668864
195	0x400c08fb	2.1880481
196	0x3f977e41	1.1835405
197	0xc0167e3a	-2.3514543
198	0xbedb566d	-0.42839375
199	0x3f3663fa	0.712463
200	0xc0073d2b	-2.1131084
201	0xc007401c	-2.113288
202	0x3fbff046	1.4995201
203	0xbe5fd39b	-0.21858065
204	0xbf6d0f44	-0.9260142
205	0xbe64f9bf	-0.22360896
206	0x3ff3485a	1.9006455
207	0x3fb5846e	1.4181039
208	0x3f97a68a	1.1847699
209	0xbfa41b52	-1.2820837
210	0x3fe92af9	1.8216239
211	0x40032381	2.049042
212	0x3efe0d55	0.49619547
213	0x3fa5181d	1.2897984
214	0x3fe6a3a3	1.8018688
215	0x3ec6a109	0.38794735
216	0x3f9562a8	1.1670732
217	0xbed795a7	-0.42106363
218	0x3e2cb5d6	0.1686624
219	0x3fc80f7f	1.5629729
220	0x3f518051	0.8183642
221	0xbfdc81a4	-1.7227063
222	0xbf093773	-0.53600234
223	0x3fad1865	1.352307
224	0xbff1ee49	-1.8900844
225	0x405b8a17	3.4303033
226	0xc0062e66	-2.096582
227	0xbf8b2888	-1.0871744
228	0xc0090683	-2.1410224
229	0x3f43dde6	0.76510465
230	0xbf80ee04	-1.0072637
231	0x40c20f1d	6.064345
232	0xc00cc560	-2.1995468
233	0xbe3e8315	-0.18604691
234	0xc00f443f	-2.2385404
235	0xc076532c	-3.8488264
236	0x402eeda1	2.7332537
237	0x3e73bd69	0.23802723
238	0x3e9f79b9	0.31147555
239	0x3f86c389	1.0528423
240	0x4123b37e	10.231321
241	0x40e08006	7.015628
242	0x40397739	2.8979018
243	0x40c95741	6.291901
244	0x3d8350c9	0.06411893
245	0xbffc7b41	-1.9725114
246	0xbf5244f2	-0.8213645
247	0x3f522ccf	0.8209962
248	0xc10aae0c	-8.667492
249	0x4113f54a	9.247385
250	0x4086fcc8	4.218357
251	0x40ed8385	7.4223046
252	0xc05a604d	-3.4121277
253	0x40546b22	3.3190389
254	0xc0107a33	-2.2574584
255	0x40300baa	2.750712

bias f4 [32]
0	0xc09bf627	-4.873798
1	0xc1b2b98e	-22.340603
2	0x4055a290	3.338047
3	0xc13d5d75	-11.835317
4	0xc09aa75e	-4.8329306
5	0xc06bd596	-3.6849113
6	0x40c10bbe	6.0326834
7	0xbf47084b	-0.7774703
8	0xc14787fd	-12.4707
9	0xc0d80b68	-6.7513924
10	0x41197da6	9.593176
11	0xc16a13df	-14.629851
12	0xbf77e36d	-0.968314
13	0xc0f6fd1b	-7.7183967
14	0xc1cfe6e4	-25.98774
15	0xc20427a6	-33.03872
16	0xc11ca289	-9.789681
17	0xc08a5654	-4.323038
18	0xc15dae54	-13.855061
19	0x4004c390	2.0744362
20	0x3fba6142	1.4560931
21	0x40b1daa0	5.5579376
22	0xc0aec055	-5.460978
23	0xc0140469	-2.3127692
24	0xc0cf254d	-6.4733033
25	0xc0e85a11	-7.2609944
26	0x40e3059b	7.0944343
27	0x4014497a	2.3169847
28	0xc008017c	-2.1250906
29	0xc084efbf	-4.154266
30	0x3f2c66a9	0.67344147
31	0x4056a92a	3.354075

weight f4 [1, 32]
0	0x3fc075de	1.503597
1	0x4017871e	2.367622
2	0xbf0a092d	-0.5392025
3	0x3efe2cec	0.49643648
4	0x3fcf278d	1.6183945
5	0x3f660498	0.8985076
6	0x3f150370	0.5820837
7	0xbfb00086	-1.375016
8	0xbf4f1568	-0.8089204
9	0x3f27b58e	0.65511405
10	0x3f829ae7	1.0203522
11	0x3f6bd824	0.9212668
12	0x3eb741c2	0.35792357
13	0x3f10a6ea	0.5650469
14	0x3f97981e	1.1843297
15	0x3f96d4e8	1.1783724
16	0xbf82afc9	-1.0209895
17	0x3ed25a8c	0.41084707
18	0x3f673d46	0.9032787
19	0x3f800876	1.0002582
20	0x3f2994b1	0.6624251
21	0x3f146f75	0.5798257
22	0x3f1626e9	0.5865312
23	0x3fb0e1be	1.3818891
24	0xc02d53af	-2.7082326
25	0x3faeeb04	1.3665471
26	0xbf7627da	-0.9615456
27	0x3f12d3a9	0.5735422
28	0xbfea127c	-1.8286891
29	0xbfc01ff8	-1.5009756
30	0xbf7228d1	-0.9459353
31	0x3f429926	0.76014936
